fedavg_model.pt (torch, 251861 bytes, 10 tensors)

conv1.weight f4 [6, 3, 5, 5]
0	0xbc032ff8	-0.008007042
1	0x3d8fa342	0.07013561
2	0xbdb4900a	-0.08816536
3	0xbd315b96	-0.043300234
4	0x3e1e516b	0.15460746
5	0x3c6b9f6c	0.014381271
6	0x3e76acb6	0.24089321
7	0x3de8a973	0.11360445
8	0x3e0c4e8e	0.13701841
9	0x3e54a637	0.20766531
10	0x3c65b3ea	0.014019946
11	0xbc5fc1ea	-0.013657073
12	0x3e5dc98c	0.21658915
13	0x3dbf89f2	0.09352483
14	0xbcf0107f	-0.029304741
15	0xbd60e137	-0.05490228
16	0xbc9082f4	-0.017640568
17	0xbd982513	-0.07428946
18	0xbcb72d93	-0.022360599
19	0x3d23e744	0.040015474
20	0xbd8a5715	-0.06754891
21	0xbdd80eea	-0.1054972
22	0xbe2cba0d	-0.16867848
23	0xbe0527bd	-0.1300344
24	0xbe80cc85	-0.25156036
25	0x3e5f88a9	0.21829475
26	0x3e08b550	0.13350415
27	0xbd93c680	-0.07215595
28	0xbdab57ef	-0.083663814
29	0x3d7ce73d	0.061743964
30	0x3e302788	0.1720258
31	0x3e37e995	0.17960198
32	0x3e51c161	0.20483924
33	0x3d8642cf	0.065557115
34	0x3d31490f	0.043282565
35	0x3e349494	0.17634803
36	0x3d2797d9	0.040916298
37	0x3e824e54	0.25450385
38	0x3de4c648	0.11170632
39	0xbd836a77	-0.06416791
40	0x3e080186	0.13281831
41	0x3e2b8c7d	0.16752811
42	0x3e85d673	0.26140174
43	0x3e5119d1	0.20420004
44	0xbd667d22	-0.05627168
45	0x3e5a0bd5	0.21293576
46	0x3dcdecee	0.100549564
47	0x3e7124f3	0.23549251
48	0x3e1e01e0	0.15430403
49	0xbc24af24	-0.010051522
50	0xbde9f47e	-0.11423586
51	0xbe44ce6b	-0.19219367
52	0xbeb547c3	-0.35406312
53	0xbe9134e1	-0.28360656
54	0xbdf27711	-0.11839116
55	0xbe45ec91	-0.19328524
56	0xbe78cd22	-0.24297002
57	0xbe32eb56	-0.17472586
58	0xbe28b76f	-0.16476224
59	0xbe40f205	-0.18842323
60	0xbeb903f0	-0.36135817
61	0xbe612b2a	-0.21989122
62	0xbda79918	-0.08183497
63	0xbea949db	-0.3306416
64	0xbe6a4bca	-0.22880474
65	0xbe8f948e	-0.28043026
66	0xbd59b11a	-0.053147413
67	0xbd40152c	-0.04689519
68	0xbdbd4318	-0.09241313
69	0xbe4a2957	-0.19742332
70	0xbdfc7500	-0.123270035
71	0xbe0617b7	-0.13094984
72	0xbe1dad29	-0.15398087
73	0x3d1522a2	0.03640998
74	0xbe5338c4	-0.20627123
75	0x3f1ca43e	0.61188114
76	0x3ef1f6f8	0.47258735
77	0x3eae74a0	0.34073353
78	0x3e716345	0.23573025
79	0x3e4a8a29	0.19779266
80	0x3f1e1b95	0.61760837
81	0x3f301a32	0.6878997
82	0x3f09ec43	0.5387613
83	0x3ee1288a	0.4397624
84	0x3e3fbbbb	0.18723957
85	0x3ef01d2e	0.46897262
86	0x3f00d046	0.503178
87	0x3ee32ebf	0.44371602
88	0x3e01d478	0.12678707
89	0xbdcbc23d	-0.099491574
90	0x3e1cf59e	0.1532807
91	0x3dc4e95d	0.09614823
92	0x3df7a332	0.12091674
93	0xbd27b34a	-0.040942468
94	0xbe34580b	-0.1761171
95	0xbd3bfd5b	-0.045895915
96	0xbdf0e55e	-0.11762498
97	0x3c583cd6	0.013198098
98	0xbe5acecf	-0.21367954
99	0xbeace9b0	-0.3377204
100	0xbe8d500f	-0.27600142
101	0xbeddb27c	-0.43300235
102	0xbf079404	-0.5296023
103	0xbf2edd88	-0.6830678
104	0xbf146ab4	-0.57975316
105	0xbe9532a4	-0.29140198
106	0xbeac55be	-0.33659166
107	0xbeb119d0	-0.34590006
108	0xbed5100b	-0.41613802
109	0xbed8358e	-0.4222836
110	0xbea3076e	-0.31841606
111	0xbe6edf4e	-0.23327371
112	0xbe0b2160	-0.1358695
113	0xbecfa57f	-0.4055595
114	0xbf0d3ee2	-0.55174077
115	0xbe9d1f50	-0.30687952
116	0x3d03fee5	0.03222551
117	0x3b583500	0.0032990575
118	0xbe27ca17	-0.16385685
119	0xbec40905	-0.3828813
120	0xbdbb9db9	-0.091609426
121	0xbd82b297	-0.063817196
122	0x3dd67282	0.104710594
123	0xbe04279f	-0.12905739
124	0xbed85ca1	-0.4225817
125	0x3d97675c	0.07392761
126	0xbe0726e4	-0.1319843
127	0xbe889a03	-0.26680002
128	0xbe7b21df	-0.2452464
129	0xbe85ea2d	-0.26155224
130	0xbe07f5c7	-0.1327735
131	0x3d1338d5	0.03594287
132	0x3cbc54b6	0.022989612
133	0xbe34a94b	-0.17642705
134	0xbe83d977	-0.2575185
135	0xbcf7e9c4	-0.030262835
136	0x3d833fec	0.064086765
137	0x3e511a26	0.20420131
138	0x3c886336	0.01664887
139	0xbe7c43d4	-0.2463525
140	0xbdc130d4	-0.09433141
141	0x3e5f43e1	0.21803237
142	0x3ec36402	0.38162237
143	0x3e432dfb	0.19060509
144	0xbe496804	-0.19668585
145	0x3d87e3f8	0.066352785
146	0x3eb8bf84	0.36083615
147	0x3e96ba01	0.29438785
148	0x3ea1d9e0	0.31611538
149	0xbce5e35a	-0.028062511
150	0x3f0cac52	0.5495044
151	0x3eb42229	0.35182312
152	0x3f1b178e	0.60582817
153	0x3efbbcf8	0.4916761
154	0x3ebd8484	0.37015164
155	0xbdb9bd04	-0.09069255
156	0xbdb8146d	-0.08988271
157	0xbdda6890	-0.10664475
158	0xbe9c3e2c	-0.30516183
159	0xbe930621	-0.28715613
160	0xbf00dc69	-0.5033632
161	0xbeaf8d43	-0.34287462
162	0xbeccaeb2	-0.39977032
163	0xbe9350f1	-0.2877269
164	0xbe8d7186	-0.27625674
165	0xbea69d9a	-0.32542115
166	0xbe040f43	-0.12896447
167	0x3d446e99	0.047957037
168	0xbcad5468	-0.021158412
169	0xbda9e174	-0.08294955
170	0xbe517963	-0.20456462
171	0x3c0f7dfe	0.008758066
172	0x3da02696	0.0781986
173	0xbc814662	-0.015780631
174	0xbe760346	-0.24024686
175	0x3ec09f29	0.3762143
176	0x3ed4e6e6	0.41582412
177	0x3f19e774	0.60118794
178	0x3ef64d6f	0.48105952
179	0x3ed0bed0	0.40770578
180	0x3c67c316	0.014145633
181	0xbe585713	-0.21126966
182	0xbe236d5e	-0.15959689
183	0xbe2a3059	-0.16620006
184	0xbdc9e719	-0.098585315
185	0xbeb59842	-0.35467726
186	0xbeb272ff	-0.3485336
187	0xbe7f80fa	-0.24951544
188	0xbebe4995	-0.37165514
189	0xbecfd7a5	-0.4059421
190	0x3ce0e09a	0.027450848
191	0xbd4701ba	-0.04858563
192	0x3e640230	0.2226646
193	0x3db2b868	0.08726579
194	0xbd6140f2	-0.054993577
195	0xbd7d3996	-0.061822496
196	0x3d25f08f	0.040512618
197	0x3de60737	0.11231845
198	0x3d4ac789	0.049506698
199	0xbdff5161	-0.12466694
200	0x3e5f38d5	0.21799023
201	0x3e52666e	0.20546886
202	0x3e9c7e5f	0.30565163
203	0x3e4e7d6d	0.20165034
204	0x3d593174	0.053025678
205	0xbe14afeb	-0.14520232
206	0xbe6ee0e0	-0.2332797
207	0xbe384cd4	-0.17998058
208	0xbdf730e1	-0.1206987
209	0xbd9694a4	-0.0735257
210	0xbe7b8f45	-0.24566372
211	0xbef8257d	-0.484661
212	0xbe658948	-0.2241565
213	0xbe87d395	-0.26528612
214	0xbea008da	-0.31256753
215	0x3ce1884c	0.027530812
216	0x3df21284	0.11819938
217	0x3e892bdf	0.26791283
218	0x3d34febb	0.044188242
219	0x3d4442b4	0.047915176
220	0x3c4a098a	0.012331376
221	0x3e1e565c	0.15462631
222	0x3e43c12c	0.19116658
223	0x3e77a73c	0.24184889
224	0x3ccf7701	0.0253253
225	0xbe357af4	-0.17722684
226	0x3d1f3294	0.038866594
227	0xbe47f17f	-0.19525717
228	0x3c5b76de	0.013395039
229	0xbe3b79a0	-0.18308115
230	0xbe7fc618	-0.2497791
231	0xbe04bdf8	-0.12963092
232	0xbe52dcc9	-0.20592035
233	0xbe231364	-0.15925366
234	0xbe27a2e0	-0.16370726
235	0x3ea5a41b	0.32351765
236	0x3f340a43	0.7032816
237	0x3f023758	0.508657
238	0x3ee5aad9	0.4485691
239	0x3ee8be17	0.45457527
240	0x3e8397d4	0.25701773
241	0x3f1077be	0.5643271
242	0x3eaa0df5	0.33213773
243	0x3efd8fe8	0.49523854
244	0x3e4c2b8e	0.1993849
245	0xbecca02c	-0.3996595
246	0xbee007c7	-0.43755934
247	0xbec3a577	-0.38212177
248	0xbec8dbea	-0.3923028
249	0xbf1782f8	-0.5918422
250	0xbe29fb24	-0.16599709
251	0xbcaaf007	-0.020866407
252	0x3e0305e1	0.12795211
253	0x3dd50a2f	0.10402333
254	0xbe5b6cc7	-0.21428214
255	0xbef2739e	-0.47353834

conv1.bias f4 [6]
0	0xc00b2209	-2.1739523
1	0xbfeb786e	-1.8396127
2	0xbfa874c7	-1.3160638
3	0xbfd6ba5c	-1.6775622
4	0xbf090a1c	-0.5353105
5	0xc01618d6	-2.3452659

conv2.weight f4 [16, 6, 5, 5]
0	0xbe10475e	-0.14089724
1	0xbd996ece	-0.074918374
2	0xbd97f2ff	-0.07419395
3	0xbdc1150f	-0.09427845
4	0xbe11c18b	-0.14233987
5	0xbdfabac6	-0.122426555
6	0xbd938c46	-0.072044894
7	0xbc8934eb	-0.016748866
8	0xbdab3665	-0.08359984
9	0xbd9c2c3a	-0.07625623
10	0xbdd4bf56	-0.10388057
11	0x3c68b274	0.014202703
12	0xbc3162e2	-0.010826798
13	0xbd96eeb4	-0.07369748
14	0xbde405b8	-0.11133903
15	0x395560c0	0.00020349305
16	0xbd8dad7b	-0.069178544
17	0x3bd4ab22	0.006490127
18	0xbd9140cf	-0.070924394
19	0xbe125fa4	-0.14294297
20	0xbdf9b0d8	-0.121919334
21	0xbc73c582	-0.0148786325
22	0xbdec40db	-0.11535808
23	0xbd604b0b	-0.054759067
24	0xbcce6890	-0.025196344
25	0xbe1cbe5d	-0.15306993
26	0xbd8aa99d	-0.067706324
27	0xbe1dd20b	-0.15412156
28	0xbd8fb3c8	-0.070167124
29	0xbd819148	-0.06326538
30	0xbd8c88f4	-0.06862059
31	0xbdb77c20	-0.08959222
32	0xbdd12c0c	-0.102134794
33	0xbe1402e5	-0.14454229
34	0x3bd55c3e	0.0065112403
35	0xbcd1cab7	-0.025609357
36	0x3aa209cc	0.0012362539
37	0xbd807621	-0.06272531
38	0xbe053489	-0.13008322
39	0xbcdffc7c	-0.027342074
40	0xbe088779	-0.13332929
41	0xbdf76583	-0.12079909
42	0xbde58b61	-0.11208225
43	0xbe184d0d	-0.14873143
44	0xbda7219a	-0.08160706
45	0xbd536aa9	-0.05161539
46	0xbd906c29	-0.0705188
47	0xbd6ef2b4	-0.05833693
48	0xbd7f62bf	-0.06235003
49	0xbd8271cb	-0.063693605
50	0xbe4fef7c	-0.203062
51	0xbe11b768	-0.1423012
52	0xbe305249	-0.1721889
53	0xbda540cd	-0.080690004
54	0xbde49864	-0.11161879
55	0xbdfefbf0	-0.12450397
56	0xbe54611f	-0.20740174
57	0xbcf393fc	-0.02973365
58	0xbd30aa27	-0.04313102
59	0xbe131dc0	-0.14366817
60	0xbd5f4586	-0.054509662
61	0xbe0aa47a	-0.13539305
62	0x3b721a3d	0.0036941909
63	0xbc4cfa74	-0.012510885
64	0xbe31420b	-0.1731035
65	0xbdadadee	-0.0848044
66	0xbce4664b	-0.027880808
67	0xbd2ba28d	-0.041903067
68	0xbdfdfe2a	-0.124019936
69	0xbe0ed8b8	-0.13949859
70	0x3c45c960	0.012071937
71	0xbdab3b3b	-0.08360907
72	0xbc48a5c8	-0.012246557
73	0x3b002720	0.001955457
74	0xbe1a816c	-0.15088433
75	0xbd57a112	-0.052643843
76	0xbdf4aeb8	-0.119473875
77	0xbdda5e99	-0.10662574
78	0xbd4a80bf	-0.049439188
79	0xbe23fc70	-0.16014266
80	0xbcb830d4	-0.02248422
81	0xbd8e7c28	-0.06957275
82	0xbdcfe06c	-0.10150227
83	0xbe1f7da1	-0.15575267
84	0xbd519cf6	-0.05117508
85	0xbaeb3510	-0.0017944891
86	0xbb5467c7	-0.003241049
87	0xbe298b56	-0.16557059
88	0xbd08c88c	-0.03339438
89	0xbe1167cb	-0.1419975
90	0xbd1a7481	-0.037708763
91	0xbd6aa922	-0.057290204
92	0xbd9588f7	-0.073015146
93	0xbceae28e	-0.028672483
94	0xbe02cd5e	-0.12773654
95	0xbd2e8d06	-0.04261496
96	0xbd78f3ff	-0.060779568
97	0xbd33d912	-0.043908186
98	0xbe0c2b18	-0.13688314
99	0xbd87224e	-0.0659834
100	0xbdbc8260	-0.092045546
101	0xbd9f239e	-0.07770465
102	0xbb02d695	-0.0019964327
103	0xbd54265c	-0.051794395
104	0xbd7f94b0	-0.06239766
105	0xbd64c88d	-0.055855323
106	0xbde0d15e	-0.109774336
107	0xbdfe0ae8	-0.12404424
108	0xbd62098b	-0.055184882
109	0xbe01472e	-0.12624809
110	0xbd76d943	-0.06026579
111	0xbe03ea4d	-0.12882347
112	0xbd8513c8	-0.064979136
113	0xbc9e8707	-0.019351495
114	0xbdb28260	-0.08716273
115	0x3cfb85d9	0.030703472
116	0xbd221477	-0.039570298
117	0xbd145415	-0.036213
118	0xbe11f4af	-0.14253496
119	0xbde3e9dc	-0.111285895
120	0xbbd4807c	-0.006485043
121	0xbd3f1e2b	-0.04665963
122	0xbe0806c6	-0.13283834
123	0xbd5412bf	-0.05177569
124	0xbc927adb	-0.017880848
125	0xbe255725	-0.16146524
126	0x3b850c5b	0.004060311
127	0x3d0a7b0b	0.03380875
128	0xbd997252	-0.07492508
129	0xbd246ca3	-0.040142667
130	0xbdfc0da9	-0.12307293
131	0xbe282dec	-0.16423768
132	0xbe36b808	-0.1784364
133	0xbdf8fb10	-0.12157261
134	0xbde41b59	-0.11138029
135	0xbd919bed	-0.071098186
136	0xbd552c1e	-0.052044027
137	0xbe1d6ec1	-0.1537428
138	0xbe102c13	-0.14079313
139	0xbc5b51e5	-0.013386224
140	0xbdbbfd3e	-0.091791615
141	0xbde0141e	-0.10941337
142	0xbddbc0d0	-0.107301354
143	0xbdaf20f2	-0.08551206
144	0xbd8ea830	-0.06965673
145	0xbd7a6710	-0.061133444
146	0xbd279038	-0.040909022
147	0xbdd8991c	-0.10576078
148	0xbe1e5e80	-0.15465736
149	0xbcad4577	-0.021151287
150	0x3cf95c83	0.03043962
151	0x3e43d200	0.19123077
152	0x3d62b052	0.055343933
153	0xbcdd5990	-0.027020246
154	0xbd5ee6ad	-0.05441921
155	0xbd049058	-0.03236422
156	0xbe817f3b	-0.25292382
157	0xbe88e6a1	-0.26738456
158	0xbcf2d025	-0.029640267
159	0xbeb87f91	-0.36034825
160	0xbe4dd350	-0.2010014
161	0xbeaeac83	-0.3411599
162	0xbf04dcc6	-0.51899374
163	0xbec5a8ec	-0.3860544
164	0xbe73745b	-0.23774855
165	0x3d7ac0fa	0.061219193
166	0x3e6fdba2	0.23423627
167	0x3dee12ae	0.116246566
168	0x3e5cff23	0.21581702
169	0xbdad76f2	-0.08469953
170	0x3e4daae3	0.2008472
171	0x3e2b3124	0.16717964
172	0x3d81282a	0.06306489
173	0x3ea3f8e0	0.32025814
174	0x3e8e6c0c	0.27816808
175	0xbd1288d0	-0.035775006
176	0x3e8de733	0.27715454
177	0x3e80d928	0.25165677
178	0x3e0dad70	0.13835692
179	0xbcd3228a	-0.025773305
180	0xbe4faa66	-0.20279846
181	0xbe101d83	-0.14073758
182	0xbe40de0b	-0.18834703
183	0xbda784da	-0.08179636
184	0xbeda70fd	-0.42664328
185	0xbec0718d	-0.37586632
186	0xbf0347ab	-0.5128123
187	0xbf0d7b60	-0.5526638
188	0xbe5a694a	-0.21329227
189	0xbed0f8cc	-0.40814817
190	0x3d98ddb4	0.074641615
191	0xbd2da1a2	-0.042390473
192	0x3c37a385	0.01120842
193	0x3e037200	0.12836456
194	0xbdc0b8d2	-0.09410252
195	0x3e98de62	0.29857165
196	0x3ea14d8a	0.3150447
197	0x3e689aca	0.22715297
198	0x3e99376d	0.299251
199	0x3f03f238	0.5154147
200	0x3e3e6a71	0.18595292
201	0x3e4f2fbf	0.20233057
202	0x3e886e91	0.26646855
203	0xbca3f9fb	-0.02001666
204	0x3dfc5bc7	0.12322193
205	0xbe187b1f	-0.14890717
206	0xbd3e96dc	-0.04653059
207	0x3d368b88	0.04456666
208	0x3d181ec7	0.037138727
209	0x3e29699b	0.16544192
210	0x3e409118	0.18805349
211	0x3d87f1bc	0.06637904
212	0x3d4b5420	0.049640775
213	0x3de5b973	0.11217012
214	0x3d20cf92	0.039260454
215	0x3df7fff0	0.12109363
216	0xbe985b08	-0.2975695
217	0xbe21f58c	-0.15816325
218	0xbec3ad28	-0.38218045
219	0x3e060d50	0.13091016
220	0x3eb76b96	0.3582427
221	0x3dc54c20	0.0963366
222	0x3c80426a	0.015656669
223	0x3e230144	0.15918452
224	0x3ead5f3c	0.3386172
225	0x3dfd4a32	0.12367667
226	0xbe28090c	-0.16409701
227	0xbd751550	-0.05983478
228	0x3e592076	0.21203789
229	0x3d4e2279	0.050325844
230	0x3e104a9d	0.14090963
231	0x3dd44e82	0.10366537
232	0xbcc4aa9e	-0.024007138
233	0xbe08dc59	-0.13365306
234	0xbea41659	-0.320483
235	0x3cc3c41b	0.023897221
236	0xbe8b0940	-0.27155495
237	0xbe667a6c	-0.22507638
238	0xbe274da9	-0.16338219
239	0x3e7c64d4	0.24647838
240	0xbd2fb60a	-0.042898215
241	0xbd258ae6	-0.040415667
242	0x3d65b2aa	0.05607859
243	0x3bbdf24a	0.0057967054
244	0x3ce686db	0.028140476
245	0x3f029d42	0.51021206
246	0x3ec60530	0.38675833
247	0x3e93be7c	0.28856266
248	0x3eda9543	0.42692003
249	0x3dd6430a	0.104620054
250	0xbdbd8998	-0.092547596
251	0x3e811508	0.25211358
252	0xbcd98211	-0.026551278
253	0x3dfcf8c9	0.123521395
254	0xbe333ec3	-0.1750441
255	0xbe8a0d06	-0.2696306

conv2.bias f4 [16]
0	0xbe0472d5	-0.1293443
1	0x3ee01e84	0.43773282
2	0xbcc8a51f	-0.024492798
3	0x3ed31276	0.41225022
4	0x3f29cd24	0.66328645
5	0xbd8a1a7c	-0.06743333
6	0x3f8976df	1.0739402
7	0xbe8c965f	-0.27458474
8	0x3f7b3b1a	0.98137057
9	0xbde20d37	-0.11037677
10	0xbe16ccb0	-0.1472652
11	0xbe1595a4	-0.14607865
12	0xbe4d70a9	-0.20062508
13	0xbea9f7c1	-0.33196834
14	0x3f345a67	0.70450443
15	0x3f65a692	0.8970729

fc1.weight f4 [120, 400]
0	0x3c8671ce	0.016411688
1	0x3d4034fb	0.046925526
2	0xbcb98d4e	-0.022650387
3	0xbd17acbc	-0.037029967
4	0xbd1ed3d3	-0.03877623
5	0xbb945652	-0.0045268917
6	0xbd33c60c	-0.043890044
7	0x3ce39f27	0.02778585
8	0xbd15d780	-0.03658247
9	0xbcb73325	-0.022363255
10	0xbd852b86	-0.06502442
11	0x3ca13528	0.019678667
12	0xbd5d27d3	-0.053993057
13	0x3d71e0a5	0.05905213
14	0x3bda731a	0.006666553
15	0xbd8cff23	-0.06884601
16	0xbd0c262d	-0.034216095
17	0xbd6c867c	-0.05774544
18	0xbd44825d	-0.047975887
19	0xbdb146de	-0.08656095
20	0xbcce480c	-0.025180839
21	0x3cd0cb1d	0.025487477
22	0xbcaed80a	-0.02134325
23	0x3bdcf06d	0.006742528
24	0x3d850ed2	0.064969674
25	0xbe0f3d8f	-0.13988326
26	0xbda10c47	-0.0786367
27	0xbd3613ff	-0.044452664
28	0xbe261f00	-0.16222763
29	0x3c7c0486	0.015381938
30	0xbd4c76e6	-0.049918078
31	0xbdd77b92	-0.10521616
32	0xbda2a122	-0.0794089
33	0xbd948a1b	-0.07252904
34	0xbd6a3f08	-0.057189018
35	0xbdf56f6d	-0.119841434
36	0xbdaec38c	-0.08533391
37	0x3c2300b5	0.009948899
38	0xbd2e9885	-0.042625923
39	0xbd3cb97c	-0.04607533
40	0xbc9f0936	-0.019413572
41	0xbe10645b	-0.14100783
42	0xbdbd1dbf	-0.09234189
43	0x3c6ec5dc	0.014573541
44	0xbd4a0711	-0.049323145
45	0xbd85b3ac	-0.0652841
46	0xbd8bcd58	-0.068262756
47	0xbc30ccc7	-0.01079101
48	0xbdb3fe88	-0.08788782
49	0xbda7c02a	-0.08190949
50	0xbd08e444	-0.033420816
51	0x3d1576e3	0.036490332
52	0x3b049abc	0.002023383
53	0xbd140305	-0.036135692
54	0xbd92b9d5	-0.07164351
55	0xbd72948b	-0.059223693
56	0x3d02c39b	0.031924825
57	0xbb1a7b60	-0.0023572072
58	0x3c9c9be0	0.019117296
59	0x3bfca784	0.007710399
60	0xbcbd641c	-0.023119025
61	0x3c3f6552	0.0116818715
62	0xbd1d0b47	-0.038340833
63	0xbcf64a2a	-0.030064661
64	0xbbb1c079	-0.005424556
65	0x3cefba78	0.02926372
66	0xbd02a2ec	-0.031893656
67	0xb9b945d0	-0.00035337964
68	0xbd2cfa2a	-0.042230763
69	0xbd6828d4	-0.05667956
70	0xbcbfb9ff	-0.02340412
71	0xbd971cd7	-0.07378548
72	0xbd195c29	-0.037441406
73	0x3c61846b	0.013764481
74	0x3cccd4da	0.02500384
75	0xbd3c5934	-0.04598351
76	0xbb4d8dcc	-0.0031365035
77	0xbd5865f8	-0.05283162
78	0xbdb4db6e	-0.088309154
79	0xbd79110a	-0.060807265
80	0xbe04a023	-0.12951712
81	0xbcf6c70e	-0.030124214
82	0xbd7f5d83	-0.06234504
83	0xbd982030	-0.07428014
84	0xbd8f9075	-0.07009975
85	0x3ab6f014	0.0013957047
86	0xbd3c49ec	-0.045968935
87	0xbdf77857	-0.120835
88	0xbe092377	-0.13392435
89	0xbd30c42b	-0.04315583
90	0xbd75ea7e	-0.060038082
91	0xbd042d87	-0.03226998
92	0x3c61d8c3	0.01378459
93	0x3bfaa952	0.007649579
94	0xbdbfba46	-0.09361701
95	0xbe03dfe8	-0.12878382
96	0xbc801177	-0.015633328
97	0x3cf1a0fd	0.02949571
98	0xbd202b90	-0.039104044
99	0xbd8921c8	-0.066958964
100	0xbdf75242	-0.12076236
101	0xbd686f15	-0.05674656
102	0xbe0522a7	-0.130015
103	0xbdae004b	-0.0849615
104	0xbdb94b7c	-0.090476006
105	0xbdc6222a	-0.09674485
106	0xbdb8cb6b	-0.09023174
107	0xbd6687b0	-0.056281745
108	0xbdb5eeca	-0.08883436
109	0xbdbb0639	-0.09132046
110	0xbddc1564	-0.107462674
111	0xbda979dd	-0.08275197
112	0xbd202942	-0.039101847
113	0xbdab760f	-0.08372127
114	0xbde41992	-0.1113769
115	0xbd47d73a	-0.04878924
116	0xbd9d8d1e	-0.076929316
117	0xbe033bb7	-0.12815748
118	0xbd7bc4a7	-0.06146684
119	0xbcc4a599	-0.024004744
120	0xbd84588f	-0.06462204
121	0xbd7744b8	-0.06036827
122	0xbd31cccc	-0.0434082
123	0xbce40e07	-0.02783872
124	0xbd941330	-0.07230222
125	0xbda27f5a	-0.07934447
126	0xbd8f08cb	-0.06984099
127	0xbc639b3c	-0.013891991
128	0xbd0597ba	-0.0326154
129	0xbd0ea96d	-0.034829546
130	0xbd33a14f	-0.043855008
131	0xbd259a23	-0.0404302
132	0xbd17c763	-0.037055384
133	0xbb94d8ee	-0.0045424616
134	0xbcd12b34	-0.025533296
135	0xbd15be57	-0.036558475
136	0xbc4ac2ce	-0.012375547
137	0xbd0919e4	-0.033471957
138	0xbc583b4b	-0.01319773
139	0xbcefd712	-0.029277358
140	0x3ba9e399	0.0051846025
141	0xbd7add05	-0.061245937
142	0xbb85fa24	-0.004088657
143	0xbcf35c63	-0.02970714
144	0xbcd31d09	-0.025770681
145	0xbcae7b57	-0.021299047
146	0xbbdce08a	-0.0067406343
147	0xbd12add8	-0.03581032
148	0xbd929ef5	-0.07159225
149	0xbd41f012	-0.04734809
150	0xbdea5b59	-0.114432044
151	0xbdcacbe0	-0.09902167
152	0xbd8137ad	-0.063094474
153	0xbe0e8d6c	-0.13921136
154	0xbdb63ce8	-0.08898336
155	0xbd2c5625	-0.04207434
156	0x3991acc4	0.00027785276
157	0x3bf44fa1	0.0074557816
158	0xbdf69b17	-0.120413
159	0xbd972e38	-0.073818624
160	0xbd6a4ccd	-0.05720215
161	0xbdab5929	-0.08366615
162	0xbdaf41b0	-0.08557451
163	0x3c052a93	0.008127826
164	0xbd8e20e6	-0.06939869
165	0xbd3d0e79	-0.04615638
166	0xbd1e3d2c	-0.038632557
167	0xbdc51d3a	-0.09624715
168	0xbd10ec67	-0.0353817
169	0xbd0d220a	-0.03445629
170	0xbdb7d7da	-0.08976717
171	0xbde58872	-0.112076655
172	0xbd3812a9	-0.04493967
173	0xbdd3d114	-0.10342613
174	0xbd008be4	-0.03138341
175	0xbd7e039d	-0.062015165
176	0xbb1ec2a2	-0.0024224897
177	0xbd97e61d	-0.074169375
178	0x3c9108e4	0.017704435
179	0x3c1b3f38	0.009475522
180	0xbdb1c1ea	-0.08679564
181	0xbd36bbf7	-0.04461285
182	0xbcf1a2e8	-0.029496625
183	0x3d3b75de	0.045766704
184	0xbd334c28	-0.0437738
185	0x3c59fc55	0.01330479
186	0xbd8a1b92	-0.0674354
187	0xbb7a12ca	-0.0038158172
188	0xbd8ca32c	-0.0686706
189	0xbc50c4d2	-0.012742238
190	0xbbcbbd04	-0.006217601
191	0xbbdd7db8	-0.0067593716
192	0x3b51fd20	0.0032041743
193	0xbd2d75ef	-0.0423488
194	0x3c3a37a9	0.0113658095
195	0xbcd59992	-0.026074205
196	0x3cc8fbe1	0.024534168
197	0xbd5917a4	-0.05300106
198	0xbcbf630e	-0.023362663
199	0xbc64938d	-0.0139511945
200	0xbd49340b	-0.049121898
201	0xbd7f5352	-0.06233532
202	0xbd68ba18	-0.056818098
203	0xbdc5f1f1	-0.09665287
204	0xbdbc74b0	-0.09201944
205	0xbcd9910c	-0.026558422
206	0xbd805368	-0.062659085
207	0xbdf1d5bf	-0.11808347
208	0xbda05e6c	-0.078305095
209	0xbe1c4dd3	-0.15264063
210	0xbcf2fecb	-0.02966251
211	0xbe1e6c85	-0.15471084
212	0xbdb442cb	-0.08801802
213	0xbdc74886	-0.097306296
214	0xbd7f4b1f	-0.0623275
215	0xbbfc3559	-0.007696789
216	0xbd2d9a80	-0.04238367
217	0xbdf43162	-0.119234815
218	0xbd2cf548	-0.042226106
219	0xbdbe13e4	-0.092811376
220	0xbcfb2588	-0.030657545
221	0xbd2a8e5a	-0.041639663
222	0xbd5f7156	-0.054551445
223	0x3c7117a6	0.014715111
224	0xbd78ec10	-0.060772
225	0xbd143a13	-0.036188196
226	0xbdd27462	-0.102761045
227	0xbd8c4ca7	-0.06850558
228	0xbd0f4306	-0.034976028
229	0xbd05f1be	-0.032701246
230	0xbdce00ff	-0.10058784
231	0xbda6b744	-0.08140424
232	0xbda349b2	-0.07973041
233	0xbd14918c	-0.036271617
234	0xbc9fbfcb	-0.019500634
235	0x3b4935a2	0.0030702134
236	0xbceae1ee	-0.028672185
237	0xbc807efa	-0.015685547
238	0xbc8c259e	-0.017107781
239	0xbd93269c	-0.071850985
240	0xbcaad459	-0.020853208
241	0xbd982992	-0.07429804
242	0xbe0b5832	-0.13607863
243	0xbdc84e6f	-0.09780585
244	0xbdbba57b	-0.09162422
245	0xbdabd8ea	-0.083909824
246	0xbd4a8bc1	-0.049449686
247	0xbd7f97da	-0.062400676
248	0xbcdb47e6	-0.026767682
249	0xbd26244a	-0.04056195
250	0xbd818f6b	-0.06326183
251	0xbc3ee647	-0.011651582
252	0x39e72b88	0.00044092187
253	0xbc3fc7ac	-0.01170532
254	0xbb1758a3	-0.0023093603
255	0x3cd14fa2	0.025550667

fc1.bias f4 [120]
0	0xbe7546db	-0.2395281
1	0xbf130934	-0.5743592
2	0xbf240544	-0.64070535
3	0xbe714ec4	-0.23565203
4	0xbf07128c	-0.52762675
5	0xbefb49f7	-0.49079868
6	0xbeeea45c	-0.4660977
7	0xbe603e18	-0.21898687
8	0xbeb04889	-0.3443034
9	0xbf363fc2	-0.71191037
10	0xbea3ea20	-0.3201456
11	0xbf3ec9d9	-0.74526745
12	0xbef75ca5	-0.4831287
13	0xbe831acc	-0.25606382
14	0xbea2b41c	-0.31778038
15	0xbf0c3cd6	-0.5478033
16	0xbf4f44d8	-0.8096442
17	0xbefecaf0	-0.49764204
18	0xbf0d0707	-0.5508885
19	0xbeae93d5	-0.34097162
20	0x3f2f140f	0.6838998
21	0x3f142eed	0.57884103
22	0xbe95c9a5	-0.29255405
23	0xbebdafa8	-0.37048078
24	0xbf1a7b5e	-0.60344493
25	0xbeab5456	-0.3346278
26	0xbeb9b485	-0.36270538
27	0xbeca0a2a	-0.3946088
28	0xbf63e832	-0.89026177
29	0xbecf11cc	-0.40443265
30	0xbea28458	-0.31741595
31	0xbf076da8	-0.529017
32	0x3f5f6ded	0.8727711
33	0x3ee3955e	0.44449896
34	0xbefb8c27	-0.49130365
35	0xbde178fe	-0.110094056
36	0xbe8efca1	-0.27927116
37	0xbdfb96b4	-0.12284604
38	0xbecc245f	-0.398715
39	0x3f119491	0.5686732
40	0x3f7178d8	0.9432502
41	0xbf4d7d46	-0.8026928
42	0xbe92afff	-0.286499
43	0xbedb1125	-0.42786518
44	0xbf26200e	-0.6489266
45	0xbf0270f3	-0.50953597
46	0xbe58ee47	-0.21184646
47	0x3f096a66	0.53677976
48	0xbe937c18	-0.28805614
49	0xbf36af6b	-0.71361417
50	0xbebfa588	-0.37430978
51	0xbf352df2	-0.7077323
52	0xbed9715a	-0.42469293
53	0xbf13aa61	-0.5768185
54	0xbeb944a6	-0.36185187
55	0x3eadb988	0.33930612
56	0xbe84dcd7	-0.25949737
57	0xbee2d5b4	-0.44303668
58	0xbefc5905	-0.49286667
59	0xbe19c1ba	-0.15015307
60	0xbf34dfe6	-0.7065414
61	0xbebcd2a2	-0.3687945
62	0xbf48ef94	-0.7849057
63	0xbee86386	-0.4538843
64	0x3f0287d1	0.5098849
65	0x3f325bd5	0.69671375
66	0xbeadf1b0	-0.33973455
67	0xbf2da2f7	-0.6782679
68	0xbf33c9b7	-0.7022967
69	0xbe51aa00	-0.20475006
70	0xbe5ca00e	-0.21545431
71	0xbec46972	-0.38361698
72	0xbeb45d9a	-0.35227662
73	0xbeb38d9c	-0.35068977
74	0xbef9eda2	-0.48814112
75	0xbf005b06	-0.5013889
76	0x3d6a6042	0.057220705
77	0xbed2e093	-0.41186962
78	0xbf0c0ace	-0.54703987
79	0xbeecd93a	-0.4625948
80	0xbed1a3bc	-0.40945232
81	0xbeffd3fe	-0.49966425
82	0xbe65b8a8	-0.22433722
83	0xbea596f9	-0.32341745
84	0xbee9b31d	-0.45644465
85	0xbf34c428	-0.7061181
86	0xbe693e8e	-0.22777769
87	0xbedef679	-0.4354742
88	0xbf3df7fc	-0.7420652
89	0x3dc3c18d	0.09558401
90	0xbe186990	-0.14884019
91	0xbec7623f	-0.38942143
92	0xbeab8a0e	-0.33503765
93	0xbe9d7e87	-0.30760595
94	0xbe5b1ae0	-0.21396971
95	0xbc9be969	-0.019032197
96	0xbe399336	-0.18122563
97	0xbe9adb26	-0.30245322
98	0xbf45fd3d	-0.77339536
99	0xbf1959e2	-0.59902775
100	0xbe0c365d	-0.13692613
101	0x3f1f4ed4	0.6222966
102	0xbf0475a4	-0.51742005
103	0xbeb24853	-0.34820804
104	0xbf1a5300	-0.602829
105	0xbf1c5cee	-0.610793
106	0xbf19f102	-0.60133374
107	0xbe972b79	-0.29525355
108	0xbf06ddf6	-0.52682436
109	0xbe7fe2d6	-0.24988875
110	0xbe6eddf8	-0.23326862
111	0xbeafa834	-0.34308016
112	0xbf30608a	-0.68897307
113	0xbed38583	-0.413128
114	0x3f18f114	0.59742856
115	0xbed4cb52	-0.4156137
116	0xbf1f3579	-0.6219097
117	0xbe8f9f66	-0.280513
118	0xbef9e81c	-0.48809898
119	0xbf0b0ecd	-0.5431946

fc2.weight f4 [84, 120]
0	0xbdef072e	-0.11671291
1	0xbd57af19	-0.05265722
2	0xbdcd536f	-0.10025679
3	0x3d638cfa	0.055554368
4	0xbe668e20	-0.22515154
5	0xbba25575	-0.004954035
6	0xbd1153bf	-0.035480257
7	0xbe38110e	-0.17975256
8	0xbe114e35	-0.1418999
9	0x3ce1b1a8	0.027550533
10	0x3d7040dc	0.058655605
11	0xbe049c20	-0.12950182
12	0x3ca4afcf	0.020103363
13	0xbdaa77c4	-0.08323625
14	0xbdbe165e	-0.0928161
15	0xbe542ba4	-0.20719773
16	0xbde0efc4	-0.10983232
17	0xbdd4d9aa	-0.103930786
18	0xbda1c3a8	-0.078986466
19	0xbc8012af	-0.015633909
20	0xbdc0c352	-0.094122544
21	0xbde8958a	-0.11356647
22	0x3d2c6a1b	0.042093378
23	0xbd073b73	-0.03301568
24	0x3d327b30	0.043574512
25	0xbc4bd380	-0.012440562
26	0xbdbd07e9	-0.09230024
27	0xbd6ac7f8	-0.05731961
28	0xbded6d2c	-0.115930885
29	0x3db9306f	0.09042441
30	0x3d0a5bb5	0.033778865
31	0xbd4f30a4	-0.050583497
32	0xbd202bb8	-0.039104193
33	0xbe7b9c39	-0.24571313
34	0xbe06e965	-0.1317497
35	0xbe7c09df	-0.2461314
36	0x3d55ee0e	0.05222898
37	0xbd024337	-0.031802382
38	0x3c3c897d	0.011507389
39	0xbd59a112	-0.053132124
40	0xbe9a9984	-0.30195248
41	0xbcb67704	-0.022273548
42	0x3d0a689d	0.033791173
43	0xbd99b909	-0.07505996
44	0x3db745d4	0.089488655
45	0x3d7f8821	0.062385682
46	0xbd8db5ee	-0.06919466
47	0xbe977e9a	-0.29588777
48	0xbdf10792	-0.11769022
49	0xbce6f579	-0.028193222
50	0x3d23102d	0.03981035
51	0xbdf5fd72	-0.120112315
52	0xbdcefe52	-0.101071015
53	0xbdb633a2	-0.08896567
54	0xbdd39e93	-0.1033298
55	0xbe4ea2fb	-0.2017936
56	0xbd1fc55e	-0.039006583
57	0xba837980	-0.0010030717
58	0xbe8cdcce	-0.2751221
59	0x3d1e55b1	0.03865594
60	0xbe08d9da	-0.13364354
61	0x3bac3081	0.0052548056
62	0xbde49838	-0.11161846
63	0xbe108e94	-0.14116889
64	0xbe416218	-0.18885076
65	0xbe648b46	-0.22318754
66	0xbdf096aa	-0.11747487
67	0xbd18724f	-0.03721839
68	0xbda1a094	-0.07891956
69	0x3d270020	0.040771604
70	0xbdce7aab	-0.10081991
71	0xbead28f1	-0.33820298
72	0x3c168227	0.009186304
73	0x3d85a2a9	0.065251656
74	0xbd91c42c	-0.07117495
75	0xbe06a43c	-0.13148588
76	0xbe394e03	-0.18096165
77	0xbe33bc70	-0.17552352
78	0x3cb4c9e2	0.022068921
79	0xbe8cd8ad	-0.2750906
80	0xbe1691d9	-0.14704074
81	0xbd50a28b	-0.050936263
82	0xbdc437b2	-0.095809355
83	0xbd7cea96	-0.061747156
84	0xbe20e2f8	-0.15711582
85	0xbbda2ffe	-0.006658553
86	0x3cd566d1	0.026050003
87	0x3bcedb84	0.0063127894
88	0x3d6b7e37	0.057493415
89	0xbdd63a8b	-0.10460385
90	0xbdfa8ead	-0.122342445
91	0xbd7392a0	-0.059466004
92	0xbda0dffb	-0.07855221
93	0xbc9006e3	-0.017581409
94	0xbd094784	-0.03351547
95	0xbc695354	-0.014241058
96	0xbda6d00c	-0.081451505
97	0xbd2eb208	-0.042650253
98	0xbc4f8e3a	-0.012668187
99	0xbc53c308	-0.012924917
100	0xbdf0fd81	-0.11767102
101	0xbe36bc7c	-0.17845339
102	0x3be60e20	0.007020727
103	0x3d94ead8	0.072713554
104	0xbe29d011	-0.16583277
105	0xbc72b8c6	-0.014814561
106	0xbe27ba2b	-0.16379611
107	0x3d612cca	0.054974355
108	0xbc7087d2	-0.01468082
109	0x3d85e8c0	0.06538534
110	0xbdd9f2be	-0.106420025
111	0xbd9384cc	-0.07203063
112	0xbe15101e	-0.1455693
113	0xbca6ee96	-0.020377439
114	0xbdd81c32	-0.10552253
115	0xbc99b7d2	-0.01876441
116	0x3c95d33a	0.018289197
117	0x3cb69b5e	0.022290882
118	0xbdbf5f76	-0.093443796
119	0x3ca2e6de	0.019885477
120	0x3bc4cb56	0.006005685
121	0xbe33eaa4	-0.17569977
122	0x3cb7c347	0.022431983
123	0x3d22c0cd	0.03973465
124	0xbe32510b	-0.17413728
125	0xbe056592	-0.13027027
126	0xbd964376	-0.07337086
127	0xbe701468	-0.23445284
128	0x3cade3ef	0.021226851
129	0x3d5ec8a7	0.054390576
130	0xbd14d34e	-0.03633433
131	0xbe98928c	-0.29799306
132	0xbcc44069	-0.023956494
133	0xbd8c3677	-0.06846326
134	0xbdb870df	-0.090059035
135	0x3d355dfb	0.04427908
136	0xbba908a9	-0.005158503
137	0xbd8b9e5f	-0.06817316
138	0xbd758c95	-0.059948523
139	0xba9422d8	-0.0011301888
140	0xbe92a647	-0.28642485
141	0xbe75c750	-0.24001813
142	0xbe32bae6	-0.17454109
143	0xbe28af8a	-0.16473213
144	0xbc0da8b8	-0.008646183
145	0xbd21093e	-0.039315455
146	0x3d7e5c53	0.062099766
147	0x3ddd9712	0.1081983
148	0xbe88c082	-0.26709372
149	0x3d67104f	0.056412037
150	0xbcc9965d	-0.024607832
151	0xbd46f235	-0.04857083
152	0xbe887e66	-0.26658934
153	0x3ce152bc	0.027505271
154	0xbe08fadc	-0.13376945
155	0xbdef62c2	-0.116887584
156	0x3e0dddd0	0.13854146
157	0x3b8edf04	0.0043600816
158	0x3c8d4565	0.017245004
159	0xbd05b18c	-0.032640025
160	0xbde10c3e	-0.10988663
161	0xbe386484	-0.18007094
162	0x3c3c5ad8	0.011496268
163	0xbc2ff0f0	-0.010738596
164	0x3c0544e8	0.008134104
165	0xbdfe0000	-0.12402344
166	0xbcebe75d	-0.028796846
167	0xbeba3812	-0.36370903
168	0xbc59d1b8	-0.01329463
169	0xbcce939d	-0.025216872
170	0x3d7155d6	0.05891975
171	0xbe033be7	-0.1281582
172	0xbe01ee25	-0.12688501
173	0xbe491ebd	-0.19640632
174	0xbc63be1b	-0.013900305
175	0xbe47cdc0	-0.19512081
176	0xbdcb70bd	-0.099336125
177	0x3c3c1db1	0.011481688
178	0x3d7852d1	0.060625855
179	0xba9abfa8	-0.0011806386
180	0xbe818d54	-0.25303137
181	0x3dd20a48	0.10255867
182	0xbd09f415	-0.03368004
183	0xbd8c687b	-0.068558656
184	0xbe941949	-0.2892554
185	0xbe93c323	-0.28859815
186	0xbdb5f3eb	-0.08884414
187	0xbddcdb37	-0.107839994
188	0xbe3b5c33	-0.1829689
189	0xbdd26ae9	-0.10274298
190	0xbc8adb7e	-0.016950365
191	0xbddb117e	-0.10696696
192	0xbe15deee	-0.14635822
193	0xbe5de21d	-0.21668287
194	0xbc466bc3	-0.012110653
195	0x3db66639	0.08906216
196	0xbc9b8c2e	-0.018987741
197	0xbdbeaabd	-0.093099095
198	0xbbef370c	-0.0073002633
199	0xbe218d88	-0.15776646
200	0xbd3e09ca	-0.046396054
201	0xbe7319a8	-0.23740256
202	0x3c74c198	0.0149387345
203	0xbe1eff2f	-0.15527032
204	0xbe66daae	-0.22544357
205	0x3d268ff5	0.040664632
206	0x3b0d9f58	0.002160987
207	0xbdc96726	-0.09834127
208	0x3d6a6f3c	0.057234988
209	0xbe0a9420	-0.13533068
210	0xbe0487ea	-0.12942472
211	0xbe4fce83	-0.20293622
212	0xbd473282	-0.048632152
213	0x3d36f8d8	0.04467091
214	0xbdd8c043	-0.10583546
215	0x3c0336ef	0.008008703
216	0xbe8ac318	-0.2710197
217	0xbd87d3cf	-0.06632196
218	0xbe0d9622	-0.13826802
219	0xbd679306	-0.056536697
220	0xbd825e89	-0.063656874
221	0xbd91d20f	-0.071201436
222	0xbe48ad47	-0.1959735
223	0xbe0ca88c	-0.1373617
224	0xbebe06ad	-0.37114468
225	0xbe230803	-0.15921025
226	0xbe43af1d	-0.19109769
227	0xbae35b20	-0.0017345883
228	0x3c6c25e3	0.01441333
229	0x3d40f1fb	0.04710577
230	0xbe8e49e8	-0.2779076
231	0x3c9877fe	0.018611904
232	0xbe38c0f6	-0.18042359
233	0xbda86f19	-0.08224315
234	0x3bc3beca	0.0059736716
235	0xbe6fa58a	-0.23402992
236	0x3d9d96a5	0.07694749
237	0xbcf1cb47	-0.029515876
238	0xbcde6d71	-0.027151795
239	0x3cb9968c	0.022654794
240	0x3da4561d	0.08024237
241	0x3de59d18	0.11211604
242	0xbdf2bbc2	-0.11852218
243	0xbd171617	-0.0368863
244	0xbd472dc3	-0.048627626
245	0x3e33ac35	0.1754616
246	0x3de5b987	0.11217027
247	0xbe5258d8	-0.20541704
248	0x3cfa3992	0.03054503
249	0xbf04ab71	-0.518241
250	0xbe16fe5a	-0.14745465
251	0xbe4401fa	-0.19141379
252	0x3c030b8f	0.007998361
253	0x3e19e408	0.15028393
254	0xbe25113f	-0.1611986
255	0xbdd05b70	-0.1017369

fc2.bias f4 [84]
0	0xbec77cbb	-0.3896235
1	0xbe82a8b6	-0.2551934
2	0x3f805470	1.0025768
3	0x3e5b9d64	0.21446759
4	0xbea1be56	-0.31590527
5	0x3df26b03	0.11836817
6	0xbec8723a	-0.39149648
7	0xbf18fa12	-0.59756577
8	0xbeaeff7b	-0.3417929
9	0xbeb38f7c	-0.35070407
10	0xbe87053e	-0.26371187
11	0xbe8a108a	-0.26965743
12	0xbea252cc	-0.31703794
13	0xbed882fe	-0.4228744
14	0xbf0b4d6e	-0.54415023
15	0xbe998624	-0.29985154
16	0xbeef2369	-0.46706703
17	0xbed49cab	-0.41525778
18	0xbec84380	-0.39113998
19	0xbed996c0	-0.42497826
20	0xbece47c4	-0.40289128
21	0xbea09a34	-0.31367648
22	0xbee40ba0	-0.4454012
23	0xbd034821	-0.03205121
24	0xbee40dd4	-0.445418
25	0xbe9199ed	-0.2843775
26	0xbf0f3885	-0.55945617
27	0xbec01533	-0.37516174
28	0xbef75804	-0.48309338
29	0xbebd9b0b	-0.3703235
30	0xbea0c5e6	-0.31400985
31	0x3f09f702	0.5389253
32	0xbe80934c	-0.2511238
33	0xbf0ad9b1	-0.5423842
34	0xbe546742	-0.20742515
35	0xbf0dd747	-0.5540661
36	0xbe50afcc	-0.20379561
37	0x3e815d52	0.2526651
38	0xbea9bce3	-0.33151922
39	0x3f21201a	0.6293961
40	0xbf09281d	-0.53576833
41	0x3e88016b	0.26563582
42	0xbef40ce5	-0.47666088
43	0xbec0da01	-0.37666324
44	0x3e9d4243	0.30714616
45	0xbeddc6c3	-0.43315706
46	0xbe7f3546	-0.24922666
47	0xbef76b76	-0.48324174
48	0xbf199523	-0.5999319
49	0x3eb3ed5f	0.35142037
50	0xbeab3962	-0.33442217
51	0xbef4c1e2	-0.4780417
52	0xbef8a7b3	-0.48565444
53	0xbef88ddd	-0.48545733
54	0xbe693b45	-0.22776516
55	0xbec490ae	-0.38391632
56	0xbed1b852	-0.40960938
57	0xbe53f58b	-0.20699136
58	0xbea77318	-0.32704997
59	0xbea74c78	-0.3267553
60	0xbe8b039f	-0.271512
61	0xbe9dc43a	-0.3081377
62	0xbec640a0	-0.3872118
63	0xbeb14ba7	-0.3462803
64	0xbd707190	-0.05870205
65	0xbf16c2a4	-0.5889075
66	0xbeed3c06	-0.46334857
67	0xbf12fc7c	-0.5741651
68	0xbf136dab	-0.57589215
69	0xbeeb184e	-0.4591698
70	0xbf1ba491	-0.60797983
71	0xbeb4a4b0	-0.35281897
72	0xbea0a4fc	-0.31375873
73	0xbd165987	-0.036706474
74	0xbe925ccb	-0.2858642
75	0xbe889c22	-0.2668162
76	0xbec68fda	-0.38781625
77	0xbec12055	-0.3771998
78	0xbed26fcf	-0.41100928
79	0x3e9873c1	0.29775813
80	0xbea73901	-0.32660678
81	0xbf1fd0c7	-0.62427944
82	0xbed1d3e6	-0.40981978
83	0xbecdd516	-0.40201634

fc3.weight f4 [10, 84]
0	0xbf2c3510	-0.67268467
1	0xbe981f5b	-0.29711422
2	0xbee78586	-0.45219058
3	0x3eb42b56	0.35189313
4	0xbec06862	-0.37579638
5	0xbdcb82c4	-0.09937051
6	0xbe2e03cf	-0.1699364
7	0xbf28fa56	-0.6600698
8	0xbe5bd63b	-0.21468441
9	0xbec5f7ae	-0.38665527
10	0xbebe2863	-0.37140188
11	0xbe35f792	-0.17770222
12	0xbe750e49	-0.2393123
13	0xbca1e6aa	-0.01976331
14	0xbf84eb7d	-1.0384365
15	0xbf028e5e	-0.50998485
16	0xbf06cf3d	-0.5265997
17	0xbeda1a4b	-0.42598185
18	0xbf2a954d	-0.66634065
19	0xbe6c3d66	-0.23070297
20	0xbe0676b3	-0.13131218
21	0xbf0f7fe0	-0.56054497
22	0xbf46352f	-0.774249
23	0xbf1622ff	-0.5864715
24	0xbf1d8809	-0.615357
25	0xbf44889c	-0.7677095
26	0xbee199e4	-0.44062722
27	0xbf32dc77	-0.6986765
28	0xbe0bc674	-0.13649923
29	0xbf0ae95b	-0.5426232
30	0xbf1ba95d	-0.608053
31	0xbf69e18e	-0.91359794
32	0xbfa1311b	-1.2593111
33	0xbf436d73	-0.7633888
34	0xbe4f82bd	-0.20264716
35	0xbf09310c	-0.53590465
36	0xbdc04d05	-0.0938969
37	0xbdeba707	-0.11506467
38	0xbde7d4ea	-0.11319907
39	0x3df099f7	0.117481165
40	0xbf8532f2	-1.0406172
41	0xbf3e10f8	-0.7424464
42	0xbee5ca5d	-0.44880953
43	0xbe9f6847	-0.31134245
44	0xbf9933f1	-1.1968976
45	0xbf6d8745	-0.9278453
46	0xbf8e5e08	-1.1122446
47	0xbebd0bc8	-0.3692305
48	0xbf723b4c	-0.9462173
49	0xbf8b2049	-1.0869228
50	0xbf0d8020	-0.5527363
51	0xbedff531	-0.43741754
52	0xbefab0a8	-0.48962903
53	0xbe6a3412	-0.22871426
54	0xbe1614fe	-0.14656445
55	0xbf3bc217	-0.7334303
56	0xbebabf02	-0.36473852
57	0xbf1ae107	-0.60499614
58	0xbf23d391	-0.639947
59	0xbf8fb610	-1.1227436
60	0xbf5c26e1	-0.85996825
61	0xbee4ae39	-0.4466417
62	0xbe89991a	-0.2687462
63	0xbdbf16c4	-0.09330514
64	0xbf750aae	-0.9571942
65	0xbf425f26	-0.75926435
66	0xbe8692aa	-0.2628377
67	0xbf3df1f0	-0.7419729
68	0xbf018b16	-0.50602853
69	0xbdf5dd19	-0.12005062
70	0xbf71e72e	-0.9449338
71	0xbe54ab26	-0.20768413
72	0xbe8c1c12	-0.27365166
73	0xbf9af10e	-1.2104814
74	0xbf9c2ebf	-1.2201766
75	0xbf269c06	-0.6508182
76	0xbe8af4c0	-0.27139854
77	0xbf01e306	-0.50737035
78	0xbe8a75d2	-0.27043015
79	0xbee59cb6	-0.44846123
80	0xbe4cdc87	-0.20006
81	0xbf1c7c9c	-0.6112764
82	0xbeb0eea3	-0.34557065
83	0xbee60da5	-0.44932285
84	0xbeee5066	-0.46545714
85	0xbedb79eb	-0.42866454
86	0xbf0aa22a	-0.5415369
87	0xbd7d8bd8	-0.061900944
88	0xbf10e360	-0.56596947
89	0x3e5a9783	0.2134686
90	0xbda5cabf	-0.080953114
91	0xbf3cde8c	-0.7377708
92	0xbe6238ee	-0.2209203
93	0xbe8ee0d1	-0.27905896
94	0xbe91d85e	-0.28485388
95	0xbe84836c	-0.25881517
96	0xbe8f04b9	-0.2793329
97	0xbe0f0f55	-0.13970692
98	0xbf17c3ea	-0.59283316
99	0xbf462dc6	-0.77413595
100	0xbeeb1ad6	-0.45918912
101	0xbf22c1db	-0.6357705
102	0xbeae17ea	-0.3400262
103	0xbeb248b6	-0.348211
104	0xbdce3c53	-0.100701
105	0xbe741187	-0.23834811
106	0xbf8ce4dc	-1.1007342
107	0xbf842934	-1.0325074
108	0xbf36e511	-0.7144328
109	0xbf309b04	-0.68986535
110	0xbf1ee9fb	-0.62075776
111	0xbeb2456a	-0.34818584
112	0xbdb8a31e	-0.09015487
113	0xbec451b8	-0.38343596
114	0xbf674789	-0.9034353
115	0xbf717a8e	-0.9432763
116	0xbfb029f2	-1.3762801
117	0xbecd9b91	-0.4015775
118	0xbeef15c3	-0.4669629
119	0xbfde50b3	-1.7368377
120	0xbec650fb	-0.38733658
121	0x3e697fdf	0.22802685
122	0xbd91191d	-0.07084868
123	0xbf2cadca	-0.6745268
124	0xbf4b2f06	-0.7936863
125	0xbfc0bece	-1.5058229
126	0xbedfb71c	-0.4369439
127	0xbe5def1f	-0.21673249
128	0xbff2419d	-1.8926274
129	0xbf76ebdc	-0.9645364
130	0xbfdba04b	-1.7158293
131	0xbeb051ea	-0.34437495
132	0xbf6e5312	-0.93095505
133	0xbf80a302	-1.0049746
134	0xbee4c6e6	-0.44682997
135	0xbf24db88	-0.6439748
136	0xbe6d6b34	-0.23185426
137	0xbe9b509c	-0.30334938
138	0xbdec7ec3	-0.115476154
139	0xbf16d21b	-0.58914346
140	0xbf27fc7d	-0.6561964
141	0xbefd5490	-0.4947858
142	0xbf908219	-1.1289703
143	0xbf14568e	-0.5794457
144	0xbfa8ae95	-1.3178278
145	0xbeb5d295	-0.35512224
146	0xbe33602c	-0.17517155
147	0xbea8d9ca	-0.3297866
148	0xbeedec02	-0.46469122
149	0xbf7e863c	-0.99423575
150	0xbe423d91	-0.18968798
151	0xbf0e3f89	-0.55565697
152	0xbf40731a	-0.7517563
153	0xbe6f061c	-0.23342174
154	0xbfadb301	-1.3570253
155	0xbe63eb2f	-0.22257684
156	0xbf52de50	-0.8237047
157	0xbf957160	-1.1675224
158	0xbfa46402	-1.284302
159	0xbf273a46	-0.65323293
160	0xbe81adf0	-0.25328016
161	0xbeec2380	-0.46120834
162	0xbec9ff6f	-0.39452693
163	0xbfbb01a0	-1.4609871
164	0xbe612def	-0.21990179
165	0xbef081a7	-0.46973917
166	0xbe5727e5	-0.21011312
167	0xbe83e2f3	-0.25759086
168	0xbeceb00a	-0.40368682
169	0xbead8df5	-0.33897367
170	0x3e09d8f0	0.13461661
171	0xbe0a80d2	-0.13525704
172	0xbedeab15	-0.434899
173	0xbe97f5a4	-0.29679596
174	0xbe3921d8	-0.18079317
175	0xbf08a4c2	-0.533764
176	0xbe98c24f	-0.29835746
177	0xbefc719b	-0.49305424
178	0xbea4e303	-0.32204446
179	0xbeaca02e	-0.33715957
180	0xbecf9c9e	-0.40549177
181	0xbe3e58f0	-0.18588614
182	0xbefd299b	-0.49445805
183	0xbe94151e	-0.2892236
184	0xbea23816	-0.31683415
185	0xbebd1650	-0.36931086
186	0xbe8e2c46	-0.27768153
187	0xbece971d	-0.40349665
188	0xbe1b7c5c	-0.15184158
189	0xbef618e1	-0.48065856
190	0xbf0d2130	-0.55128765
191	0xbf5c29b8	-0.8600116
192	0xbf1d8eb7	-0.6154589
193	0xbf178521	-0.59187514
194	0xbedb8353	-0.4287363
195	0xbf28155b	-0.65657586
196	0xbe766464	-0.24061733
197	0xbf1d23b6	-0.61382616
198	0xbf138d0b	-0.5763709
199	0xbf3c8851	-0.736455
200	0xbf89555f	-1.0729178
201	0xbf2c9e5e	-0.6742915
202	0xbe051a1f	-0.12998246
203	0xbeb42776	-0.35186356
204	0xbe9534af	-0.29141757
205	0xbef4eab8	-0.47835326
206	0xbe591c9b	-0.21202318
207	0x3d59a900	0.053139687
208	0xbf2e5138	-0.6809268
209	0xbf4a53aa	-0.7903391
210	0xbf11e036	-0.56982744
211	0xbe94ff4e	-0.29101032
212	0xbf20677f	-0.6265792
213	0xbeeabfb4	-0.45849383
214	0xbf1c57a2	-0.6107122
215	0xbeaef598	-0.34171748
216	0xbf23fb19	-0.6405502
217	0xbf1da6e4	-0.6158278
218	0xbee9f093	-0.45691356
219	0xbf2238e9	-0.6336809
220	0xbee36ec2	-0.4442044
221	0xbe9ecc48	-0.3101523
222	0xbe0c190b	-0.13681428
223	0xbf0910d4	-0.535413
224	0xbe9b72c2	-0.3036099
225	0xbeaadb1b	-0.3337029
226	0xbf37ebd6	-0.7184423
227	0xbf39aac0	-0.7252617
228	0xbf698906	-0.91224706
229	0xbed9dda8	-0.42551923
230	0xbe383f07	-0.17992793
231	0xbe2b7928	-0.16745436
232	0xbf1fe8f0	-0.6246481
233	0xbf86f708	-1.0544138
234	0xbea8fafe	-0.33003992
235	0xbf11ea67	-0.56998295
236	0xbf3d5c01	-0.7396851
237	0xbecad917	-0.3961875
238	0xbeb0e0ab	-0.34546408
239	0xbe4c4563	-0.19948344
240	0xbf1271b1	-0.5720473
241	0xbf40947a	-0.7522656
242	0xbf5cabd4	-0.8619969
243	0xbe8deffb	-0.27722153
244	0xbeb2ee76	-0.34947556
245	0xbe8f990a	-0.28046447
246	0xbee3fc23	-0.44528303
247	0xbe099a22	-0.13437703
248	0xbe9971cc	-0.29969633
249	0xbf0eb0e9	-0.55738693
250	0xbeed315d	-0.46326724
251	0xbf0bc765	-0.54601127
252	0xbe4ad792	-0.19808796
253	0xbeafd453	-0.34341678
254	0xbe1a62ae	-0.15076706
255	0xbf1966f2	-0.5992271

fc3.bias f4 [10]
0	0xbf51fd96	-0.82027566
1	0xbf3d25cd	-0.73885804
2	0x3ca339ba	0.019924987
3	0x3f09b337	0.53789085
4	0x3ec79ebc	0.38988292
5	0x3e350aa2	0.17679837
6	0x3f185c26	0.5951561
7	0x3eccd3be	0.40005296
8	0xbf757d00	-0.9589386
9	0x3d6634f6	0.05620285
