fedprox_mu=0.1_model.pt (torch, 252053 bytes, 10 tensors)

conv1.weight f4 [6, 3, 5, 5]
0	0x3e9c1563	0.30485067
1	0x3e7f5ff0	0.24938941
2	0x3e8ecb2e	0.2788939
3	0x3e1c005a	0.15234509
4	0x3e9d52be	0.3072719
5	0x3e83d078	0.25744987
6	0x3e98b7d0	0.29827738
7	0x3e46a662	0.19399408
8	0x3bdd3228	0.006750364
9	0x3e85ec71	0.26156953
10	0x3e79173a	0.24325266
11	0x3e4cc5bf	0.19997309
12	0x3e3b5f34	0.18298036
13	0xbe9b23dc	-0.30300796
14	0x3c183628	0.009290256
15	0x3d25f572	0.040517278
16	0x3e0d2278	0.1378268
17	0x3dd30daf	0.10305344
18	0xbe8221ea	-0.254165
19	0x3e4dc5e6	0.20095024
20	0xbd2cc92b	-0.042184036
21	0xbe154cf0	-0.1458013
22	0xbd84fa8f	-0.06493103
23	0xbeb51c38	-0.35373092
24	0x3da25a95	0.079274334
25	0xbe14d95f	-0.14536045
26	0xbead26f8	-0.33818793
27	0xbed30228	-0.41212583
28	0xbf2536d9	-0.64536816
29	0xbef3410d	-0.47510567
30	0x3dce873e	0.10084389
31	0x3dc89155	0.09793345
32	0xbe595be3	-0.21226458
33	0xbf12125a	-0.5705925
34	0xbeddbf2e	-0.4330992
35	0x3d7271e2	0.05919064
36	0x3d3e19a3	0.046411168
37	0xbe4c0199	-0.19922484
38	0xbf1de9e3	-0.6168501
39	0xbec59412	-0.3858953
40	0x3d4faf26	0.050704144
41	0x3e37e469	0.17958225
42	0xbd84af2d	-0.06478725
43	0xbf141d88	-0.5785756
44	0xbe8ebc90	-0.27878237
45	0x3dd9fbdf	0.10643744
46	0x3b8f0f58	0.004365843
47	0xbe197820	-0.1498723
48	0xbf1ed939	-0.62050205
49	0xbe8b2e47	-0.27183744
50	0x3e8228ef	0.25421855
51	0xba1de360	-0.0006022956
52	0xbe16edf0	-0.14739203
53	0xbe15897a	-0.14603224
54	0xbcd2fba4	-0.025754757
55	0x3e86bb10	0.26314592
56	0x3e267c16	0.16258273
57	0x3d914329	0.07092888
58	0xbec7dff0	-0.39038038
59	0xbdcc37d1	-0.09971584
60	0x3eb17224	0.34657395
61	0x3ec22046	0.37915248
62	0x3e52eea3	0.20598845
63	0xbec110ef	-0.37708232
64	0xbc4eca66	-0.012621498
65	0x3e884e8f	0.26622435
66	0x3e7bbf99	0.24584807
67	0x3dfa4a1d	0.12221167
68	0xbea76629	-0.3269513
69	0x3da79a5b	0.08183738
70	0x3e9f2513	0.31082973
71	0x3e5bc446	0.21461591
72	0x3e3e79ca	0.18601146
73	0xbde76aa7	-0.11299639
74	0x3e7ddfb4	0.24792367
75	0x3e2d0532	0.16896513
76	0x3f035232	0.51297295
77	0x3f0e8458	0.5567069
78	0x3f0b78b9	0.54481083
79	0x3eed0175	0.46290174
80	0x3e35d858	0.1775831
81	0x3e354b8e	0.17704603
82	0x3eebeeaf	0.4608054
83	0x3ee32caf	0.44370028
84	0x3edaca98	0.42732692
85	0x3c77cc82	0.015124442
86	0x3db9487b	0.09047028
87	0x3ddb0ca4	0.106957704
88	0x3e46aede	0.19402644
89	0x3e57bef6	0.2106894
90	0xb8926cd0	-6.9820904e-05
91	0x3d27a6e6	0.04093065
92	0x3b33061e	0.0027316879
93	0x3d452915	0.048134882
94	0x3dd354fb	0.10318943
95	0xbf0c7986	-0.5487293
96	0xbef0375f	-0.46917245
97	0xbeaca19e	-0.33717054
98	0xbeb5a6ec	-0.35478914
99	0xbe195f86	-0.14977846
100	0xbe0ca278	-0.13733852
101	0x3d4425ec	0.047887728
102	0x3d13cdee	0.03608506
103	0x3e138129	0.1440474
104	0x3d937f6c	0.07202038
105	0xbe336718	-0.17519796
106	0xbe375576	-0.17903695
107	0xbe9b1f7c	-0.30297458
108	0xbeb6d680	-0.35710526
109	0xbe93a05d	-0.28833285
110	0xbe954655	-0.29155222
111	0xbe66674e	-0.22500345
112	0xbe985a49	-0.29756382
113	0xbeab7c76	-0.33493394
114	0xbe4fc8b2	-0.20291403
115	0xbe2a78a2	-0.1664758
116	0xbd7926f6	-0.06082817
117	0xbdbd7c64	-0.09252241
118	0xbe6f55a4	-0.23372513
119	0xbe4bb4e1	-0.19893219
120	0xbdf0fe75	-0.11767284
121	0xbe5d47f4	-0.21609479
122	0xbe242e0b	-0.16033189
123	0xbe81f3af	-0.25381228
124	0xbe5f51ae	-0.21808502
125	0x3e0e0559	0.13869227
126	0xbe021035	-0.12701495
127	0xbdb7049d	-0.08936427
128	0xbdc396ad	-0.095502235
129	0x3d968881	0.07350255
130	0xbccae825	-0.024768898
131	0xbe953298	-0.29140162
132	0xbed6e7a7	-0.41973612
133	0xbec06f38	-0.37584853
134	0xbe5b5a2f	-0.21421121
135	0x3dee07f6	0.11622612
136	0xbbc9b73d	-0.006155877
137	0xbc6558f5	-0.01399826
138	0xbe10c6a0	-0.1413827
139	0xbd67d10d	-0.05659585
140	0x3ee0b0f4	0.43885005
141	0x3e8aee2f	0.27134845
142	0x3e83b6d4	0.25725424
143	0x3e5e9e73	0.21740131
144	0x3e2fd6e0	0.17171812
145	0x3e9fd591	0.31217626
146	0x3ea0ee21	0.31431678
147	0x3e932736	0.28740853
148	0x3e9ce9fd	0.3064727
149	0x3e68003f	0.22656344
150	0xbece1d3b	-0.40256676
151	0xbeae7728	-0.34075284
152	0xbf07e53c	-0.5308416
153	0xbefd41aa	-0.4946416
154	0xbf1b6672	-0.60703194
155	0xbdf480f6	-0.1193866
156	0xbe5e99b5	-0.21738322
157	0xbe09284c	-0.13394278
158	0xbcb6415e	-0.022247966
159	0xbcfc4e32	-0.030799005
160	0xbd63bbfa	-0.05559919
161	0xbdee6a26	-0.1164134
162	0xbe1e2057	-0.15442024
163	0xbc114443	-0.0088663725
164	0x3d7861c2	0.060640104
165	0xbe355381	-0.17707635
166	0xbe9e9f21	-0.3098078
167	0xbe7f06b0	-0.24904895
168	0xbe7ab54f	-0.24483226
169	0xbd847bc0	-0.06468916
170	0xbe027344	-0.12739283
171	0xbe28beae	-0.16478989
172	0xbdd1c740	-0.10243082
173	0xbe5cc010	-0.21557641
174	0xbe105d58	-0.14098108
175	0xbe16fd26	-0.14745006
176	0xbe4a569c	-0.19759601
177	0xbe897cb4	-0.26852953
178	0xbeb8e572	-0.36112553
179	0xbea90243	-0.33009538
180	0x3e004678	0.12526882
181	0x3df3c95a	0.11903639
182	0x3e93a22d	0.28834668
183	0x3d294bd9	0.0413321
184	0x3d802453	0.06256928
185	0x3d5e214c	0.054230973
186	0x3e583d4c	0.21117133
187	0x3e1e5135	0.15460666
188	0x3e3a29b9	0.18179978
189	0x3daaddef	0.08343112
190	0x3d45ae99	0.048262212
191	0xbe3285f5	-0.17433913
192	0xbdecf768	-0.115706265
193	0xbe64fc86	-0.22361955
194	0xbe77dec5	-0.24206074
195	0xbe6820fa	-0.2266883
196	0xbe61aa66	-0.22037658
197	0xbeaa4a74	-0.33259928
198	0xbda22ad8	-0.07918328
199	0xbeb47dc8	-0.35252213
200	0x3e9f404a	0.31103736
201	0x3e9fb950	0.3119607
202	0x3e8885f2	0.26664692
203	0x3e4ae294	0.19812995
204	0x3d3b2385	0.04568817
205	0x3f2690d5	0.65064746
206	0x3f3b9c84	0.732857
207	0x3f37115a	0.7151085
208	0x3f001c3c	0.5004308
209	0x3eb8e70f	0.36113784
210	0x3f327d5a	0.6972252
211	0x3f1270c2	0.57203305
212	0x3f209672	0.6272956
213	0x3ee69616	0.4503638
214	0x3ea387d8	0.31939578
215	0x3ecaeb20	0.3963251
216	0x3ea18781	0.31548694
217	0x3ea94a8b	0.33064684
218	0x3e2d00d2	0.16894844
219	0x3dffdf1e	0.12493728
220	0x3ebf4ac5	0.37361732
221	0x3e2ef4d3	0.1708558
222	0x3dcde977	0.100542955
223	0x3d0441c6	0.03228929
224	0x3da72dc2	0.081630245
225	0x3e67c288	0.22632802
226	0x3d12b286	0.035814784
227	0x3ceea652	0.029132042
228	0x3dd094f3	0.1018466
229	0x3e1f7fcf	0.15576099
230	0xbdbd72b8	-0.092503965
231	0xbe89c31a	-0.26906663
232	0xbe1def7e	-0.1542339
233	0xbd9eaf6e	-0.07748304
234	0xbdcb535a	-0.099280074
235	0xbe38da5a	-0.18052045
236	0xbe5b0d70	-0.21391845
237	0xbea290d0	-0.31751108
238	0xbe40a3c8	-0.18812478
239	0xbe0e810c	-0.13916415
240	0xbd05b9b1	-0.032647792
241	0xbe8c3f69	-0.27392128
242	0xbe80a39e	-0.2512483
243	0xbe4e25bc	-0.20131582
244	0xbe4ff2ff	-0.2030754
245	0xbaa285a0	-0.0012399442
246	0xbe1ecb4a	-0.15507236
247	0xbe8489b8	-0.2588632
248	0xbdbebfc6	-0.09313922
249	0xbd063b1a	-0.032771207
250	0x3d4d2e05	0.050092716
251	0x3e209ecc	0.15685576
252	0x3e2d5394	0.16926414
253	0x3ddb398b	0.10704335
254	0x3bc6cd94	0.0060669873
255	0xbb203a60	-0.0024448857

conv1.bias f4 [6]
0	0xbf3fe7bd	-0.7496298
1	0xbfc16166	-1.5107849
2	0xbf026b66	-0.50945127
3	0xbf738786	-0.9512867
4	0xbfc04836	-1.5022037
5	0xc0214e6b	-2.5204113

conv2.weight f4 [16, 6, 5, 5]
0	0x3f1d5675	0.6146005
1	0x3c71569c	0.014730122
2	0xbe14dbf0	-0.14537024
3	0xbe1031ee	-0.14081547
4	0xbf2dc997	-0.67885727
5	0xbe56f97c	-0.20993608
6	0xbed54c0f	-0.4165959
7	0xbdddca3b	-0.10829588
8	0xbe1d4e28	-0.15361845
9	0xbefecfb6	-0.49767846
10	0xbe9b64e0	-0.303504
11	0xbdae9363	-0.085242055
12	0xbed217b7	-0.41033718
13	0xbf644687	-0.89170116
14	0xbf0ba1af	-0.54543585
15	0xbeb16e04	-0.34654248
16	0xbeacffea	-0.33788997
17	0xbee36ecc	-0.4442047
18	0xbf0f5e7f	-0.56003565
19	0xbea3503d	-0.31897154
20	0xbeadf39b	-0.3397492
21	0xbf4dc3f7	-0.80377144
22	0xbf6f3676	-0.93442476
23	0xbe98923a	-0.29799062
24	0xbdeac470	-0.11463249
25	0x3e97ed4e	0.29673237
26	0x3eaefa10	0.34175158
27	0x3db332f4	0.08749953
28	0xbd1cdfc0	-0.038299322
29	0xbe8dac53	-0.27670535
30	0x3ca18d56	0.019720715
31	0xbda907f1	-0.08253468
32	0xbec62816	-0.38702458
33	0xbea0ace0	-0.31381893
34	0xbe9725b3	-0.2952095
35	0xbe967cdd	-0.29392138
36	0xbdb21c69	-0.08696825
37	0xbe10ea46	-0.14151868
38	0xbe724da4	-0.2366243
39	0xbe882d47	-0.26597044
40	0x3c9ccc14	0.01914028
41	0xbee68372	-0.4502216
42	0xbe733db3	-0.23754005
43	0xbe29eb87	-0.16593753
44	0xbe7d205c	-0.24719375
45	0xbdcdb2ea	-0.10043891
46	0xbe847b88	-0.25875497
47	0xbf38b418	-0.721498
48	0xbebe24e8	-0.37137532
49	0xbf052efd	-0.52024823
50	0x3dcee7a0	0.10102773
51	0xbecdbe04	-0.40184033
52	0xbea44ba9	-0.32088974
53	0xbd444504	-0.04791738
54	0xbdd175c4	-0.1022754
55	0xbe2cd330	-0.16877437
56	0xbf1cbe0d	-0.61227494
57	0xbeb60381	-0.35549548
58	0xbe9415d4	-0.28922904
59	0xbeca8d4a	-0.3956092
60	0xbd3b8fa3	-0.04579128
61	0xbe7f4c13	-0.24931364
62	0xbe3f55b1	-0.18685032
63	0xbe17fe18	-0.14843023
64	0x3a94b260	0.0011344664
65	0xbd1d05f0	-0.03833574
66	0xbe3a4dda	-0.1819376
67	0xbe51c822	-0.20486501
68	0xbea63552	-0.32462555
69	0xbeb8e351	-0.3611093
70	0xbe95ef2a	-0.2928403
71	0xbea04ebf	-0.31310079
72	0xbe9297bc	-0.2863139
73	0xbe8c6977	-0.27424213
74	0x3e651426	0.22370967
75	0x3e2eb846	0.17062482
76	0xbe8791ba	-0.26478368
77	0xbe317c06	-0.17332467
78	0xbee125bd	-0.43974105
79	0xbe0b439a	-0.13600007
80	0xbe24f12f	-0.16107629
81	0xbd0dd007	-0.03462222
82	0xbeb5a649	-0.35478428
83	0xbeda8a50	-0.4268365
84	0x3e221014	0.15826446
85	0xbea2de23	-0.31810102
86	0xbe5def74	-0.21673375
87	0xbec5ae0f	-0.3860936
88	0xbecc781e	-0.39935392
89	0xbdce55be	-0.10074948
90	0xbef3b8ad	-0.47601834
91	0xbf018ee7	-0.50608677
92	0xbf0412f0	-0.51591396
93	0xbec35685	-0.38151947
94	0x3e93ad82	0.28843313
95	0xbe02e6f6	-0.12783417
96	0xbe998e9f	-0.29991624
97	0xbe69c5a0	-0.22829294
98	0x3e092d27	0.1339613
99	0x3f2a628f	0.6655664
100	0x3f405faa	0.7514597
101	0x3e80d20d	0.25160256
102	0xbdcfbe70	-0.10143745
103	0xbebfb2c5	-0.37441078
104	0xbe657d6e	-0.22411129
105	0xbcd42448	-0.025896206
106	0xbe2ef5a6	-0.17085895
107	0x3dc47baa	0.095938995
108	0xbc12fd08	-0.00897146
109	0xbef654a6	-0.48111457
110	0x3e56a206	0.20960245
111	0xbe1eb52d	-0.154988
112	0xbead01de	-0.33790487
113	0xbeedc8a7	-0.46442148
114	0xbf4543c3	-0.7705652
115	0xbcf27030	-0.02959451
116	0xbf04a08f	-0.5180749
117	0xbeb7389a	-0.3578537
118	0xbf24dd1e	-0.643999
119	0xbe7366ea	-0.23769727
120	0xbe5bc614	-0.2146228
121	0xbeab728a	-0.33485824
122	0xbf454458	-0.7705741
123	0xbed3b8ef	-0.4135203
124	0xbd909129	-0.07058937
125	0xbe065738	-0.13119209
126	0xbe8c411d	-0.27393427
127	0x3cc2cf15	0.023780385
128	0x3d1a8d0a	0.03773216
129	0xbe9bf94c	-0.30463636
130	0xbe0cdbc4	-0.13755709
131	0xbe9817a0	-0.29705524
132	0x3e2edce2	0.17076448
133	0xbdbb326e	-0.09140478
134	0x3d62ddaa	0.055387177
135	0xbc811e68	-0.01576157
136	0xbbaae2a8	-0.005215008
137	0xbe7151ec	-0.23566407
138	0xbe3db392	-0.18525532
139	0xbdb82d9c	-0.08993074
140	0xbe52eb66	-0.2059761
141	0xbe4b8f10	-0.19878793
142	0xbe8e4d2a	-0.27793247
143	0xbd8c237f	-0.06842708
144	0x3d7f6176	0.062348805
145	0x3ab3ea40	0.0013726428
146	0xbead55a6	-0.33854407
147	0x3c25b9d4	0.010115106
148	0xbe06b26a	-0.13153997
149	0x3e181098	0.1485008
150	0xbe0656f9	-0.13119115
151	0xbe86c051	-0.263186
152	0xbdd71cbc	-0.105035275
153	0xbe07df17	-0.13268696
154	0xbdce0fe0	-0.10061622
155	0xbe6a3099	-0.22870101
156	0xbe844d3f	-0.25840184
157	0xbd095b9e	-0.03353464
158	0xbd95bbea	-0.073112324
159	0xbd4d8566	-0.050176047
160	0xbdebeb74	-0.115195185
161	0xbe356138	-0.17712867
162	0xbbbd89b3	-0.0057842373
163	0xbd1167b9	-0.03549931
164	0xbdab0239	-0.08350033
165	0xbd3f965e	-0.04677426
166	0xbe52f014	-0.20599395
167	0xbe26a497	-0.16273724
168	0xbe32370d	-0.17403813
169	0xbbf3bba0	-0.007438138
170	0xbe552301	-0.20814134
171	0x3b9a771d	0.0047139064
172	0x3d0c9826	0.034324788
173	0xbe00a037	-0.12561117
174	0xbdab268c	-0.083569616
175	0xbe34ee48	-0.17669022
176	0xbe32a40a	-0.17445388
177	0xbe688414	-0.22706634
178	0xbe5a53c6	-0.2132102
179	0xbe276024	-0.16345268
180	0xbe218774	-0.15774328
181	0xbe1b1ef9	-0.15148534
182	0xbe80e2d7	-0.25173065
183	0xbe740902	-0.23831561
184	0xbe88ea1e	-0.26741117
185	0xbd85b3b1	-0.06528414
186	0xbe34a30e	-0.17640325
187	0xbe8a4ffa	-0.27014142
188	0xbe0ec86b	-0.13943641
189	0xbe67e1a5	-0.2264467
190	0xbe3420ed	-0.17590685
191	0xbe875fb2	-0.26440197
192	0xbe86c2e4	-0.26320565
193	0xbe5f47d9	-0.21804751
194	0xbe6fab1e	-0.2340512
195	0xbdc0dbcd	-0.09416924
196	0xbe03a941	-0.12857534
197	0xbe797ce8	-0.24364054
198	0xbe588e5e	-0.21148059
199	0xbe5ee542	-0.21767142
200	0xbdc1e179	-0.094668336
201	0xbe5e979a	-0.21737519
202	0xbd60ce00	-0.054883957
203	0xbdb4ec3a	-0.08834119
204	0xbddf1ca3	-0.10894134
205	0x3d6d6001	0.057952885
206	0xbda460b8	-0.0802626
207	0xbdad1ba9	-0.084525414
208	0xbe4f25b1	-0.20229222
209	0xbe12f26a	-0.14350286
210	0xbdc571b3	-0.09640827
211	0xbdf6bf5c	-0.12048218
212	0xbdac198f	-0.084033124
213	0xbe0cb6f3	-0.13741665
214	0xbe473c7a	-0.19456664
215	0xbdf0664d	-0.11738262
216	0xbd1d2a48	-0.0383704
217	0xbe234f3b	-0.15948193
218	0xbe3f566b	-0.1868531
219	0xbe00a5bb	-0.12563221
220	0xbde1c814	-0.1102449
221	0xbe15c0e0	-0.14624357
222	0xbd51d2c0	-0.051226377
223	0xbe1ee3cc	-0.15516585
224	0xbe570833	-0.20999222
225	0xbe88ac9e	-0.26694196
226	0xbe83c7b0	-0.25738287
227	0xbe59ddfd	-0.21276088
228	0xbe5bc3e8	-0.21461451
229	0xbe0fdc57	-0.14048897
230	0xbe165fab	-0.14684932
231	0xbe04e145	-0.12976559
232	0xbd8971ba	-0.06711145
233	0xbe230a60	-0.15921926
234	0xbe4eec25	-0.2020727
235	0xbdab73ee	-0.08371721
236	0xbe3e0f09	-0.18560423
237	0xbe2e1ce5	-0.1700321
238	0xbe03bfe5	-0.1286617
239	0xbd97d07a	-0.074128106
240	0x3ca3e4fe	0.020006653
241	0xbe123efe	-0.14281842
242	0xbd2b14d5	-0.041767914
243	0x3c3e1626	0.01160196
244	0xbe35ece4	-0.17766148
245	0xbe382116	-0.17981371
246	0xbd33288c	-0.04373984
247	0xbe3ab101	-0.18231584
248	0xbdd98383	-0.10620787
249	0xbe4ef5c1	-0.20210935
250	0xbe248d42	-0.1606951
251	0xbde36f34	-0.11105195
252	0x3baaf3fb	0.005217073
253	0xbc8882b4	-0.016663887
254	0xbe25d9b1	-0.16196324
255	0xbe2d315e	-0.16913363

conv2.bias f4 [16]
0	0x3e8191a0	0.25306416
1	0xbe30ed01	-0.1727791
2	0xbe291941	-0.1651354
3	0xbe53f6dc	-0.20699638
4	0x3f04311f	0.5163745
5	0xbd8cd610	-0.06876767
6	0xbc66b7df	-0.014081924
7	0xbe938f20	-0.28820133
8	0xbe2e01f2	-0.1699293
9	0xbe8174d4	-0.25284445
10	0xbd5cc4da	-0.05389867
11	0x3f71e42c	0.9448879
12	0xbdc74ce8	-0.097314656
13	0x3faca2d6	1.3487194
14	0xbdbe38fb	-0.09288212
15	0xbdf77479	-0.12082762

fc1.weight f4 [120, 400]
0	0xbe0c0714	-0.13674575
1	0xbe44ca9d	-0.19217916
2	0xbdf38f24	-0.11892536
3	0xbe76a8d1	-0.24087836
4	0xbd9b964f	-0.075970285
5	0xbdca9201	-0.09891129
6	0xbe8bcd5f	-0.27305123
7	0xbe5585a0	-0.20851755
8	0xbe414ed2	-0.18877724
9	0xbe86723a	-0.26259023
10	0xbd192a3f	-0.037393805
11	0xbe2f0028	-0.17089903
12	0xbe25d88b	-0.16195886
13	0x3d5d2bb5	0.05399676
14	0xbe7d283a	-0.24722376
15	0x3e118087	0.14209186
16	0xbe028b00	-0.12748337
17	0xbe17cd3a	-0.14824381
18	0xbdd24984	-0.10267928
19	0xbdbf8bca	-0.093528345
20	0xbcb11f03	-0.021621233
21	0xbd32d5e0	-0.043661
22	0xbd197e04	-0.037473693
23	0xbe6d3795	-0.23165734
24	0xbe3819f8	-0.17978656
25	0xbd8e7d37	-0.069574766
26	0xbe07f13b	-0.13275616
27	0xbca924d1	-0.020647438
28	0xbc668a3a	-0.014071042
29	0xbdd9e52e	-0.10639416
30	0xbe19f355	-0.1503423
31	0xbc9fab91	-0.019490989
32	0x3cb729af	0.022358743
33	0x3cb2552e	0.021769132
34	0xbdcd2ed1	-0.10018695
35	0xbd80f91f	-0.06297516
36	0xbd7db21a	-0.06193743
37	0xbdf3c0ef	-0.119020335
38	0xbc6d5d6e	-0.014487607
39	0xbe296bf3	-0.16545086
40	0xbd9c2fc9	-0.07626302
41	0xbe1f6971	-0.15567566
42	0xbdb5e176	-0.08880894
43	0xbdb7c62b	-0.089733444
44	0xbad3eabd	-0.001616798
45	0xbd88b3c6	-0.06674914
46	0x3d8f2400	0.06989288
47	0x3d66ea7d	0.05637597
48	0x3d4a69df	0.049417373
49	0x3d7f55fe	0.062337868
50	0xbda22f89	-0.07919223
51	0xbcf20b83	-0.029546505
52	0xbd87ee69	-0.0663727
53	0xbd6058fc	-0.054772362
54	0xbd6ab347	-0.05729988
55	0xbdcfbf0b	-0.101438604
56	0xbd818ae1	-0.06325317
57	0xbdd06a0a	-0.10176475
58	0xbd9e6eb5	-0.077359594
59	0xbbe7e2ee	-0.0070766127
60	0x3d05339f	0.032519933
61	0xbd1515d9	-0.03639779
62	0x3cfaf081	0.03063226
63	0x3d028ee0	0.031874537
64	0xbcca1b69	-0.024671273
65	0xbd91410e	-0.07092486
66	0xbc4dd1ff	-0.012562274
67	0xbc93fc01	-0.0180645
68	0xbd7293b6	-0.0592229
69	0xbd51cf78	-0.05122325
70	0xbdb661b0	-0.08905351
71	0x3b44f2fe	0.0030052061
72	0xbd9e3c29	-0.077263184
73	0x3c986663	0.01860351
74	0xbdc6195c	-0.09672806
75	0x3db55540	0.08854151
76	0x3cd5cdf6	0.026099186
77	0x3d19d216	0.03755387
78	0xbd90af4a	-0.07064684
79	0xbbf40019	-0.0074463007
80	0xbd044963	-0.03229655
81	0x3dd63424	0.10459164
82	0xbd042d0d	-0.032269526
83	0xbddf6a9b	-0.10909005
84	0xbd8e2035	-0.06939737
85	0xbd89c86a	-0.06727679
86	0xbc7dbe97	-0.015487335
87	0xbcc3652b	-0.023851952
88	0xbd510e38	-0.05103895
89	0xbd7ba3c3	-0.061435472
90	0xbe3ba724	-0.18325478
91	0xbd5932c1	-0.05302692
92	0xbc85fd9c	-0.016356282
93	0x3da9327e	0.08261584
94	0xbe13f3ce	-0.14448473
95	0x3da65a4c	0.081226915
96	0x3caba0d8	0.02095072
97	0x3d889a52	0.06670059
98	0x3dcbd08f	0.09951889
99	0xbdb52a8d	-0.088460065
100	0xbe42015d	-0.18945833
101	0xbebb0440	-0.3652668
102	0xbe82780d	-0.25482216
103	0xbf0d27fa	-0.55139124
104	0xbed2a4a3	-0.41141233
105	0xbe63be14	-0.22240478
106	0xbed2ef75	-0.41198316
107	0xbdfe2f45	-0.1241136
108	0xbe977abb	-0.29585823
109	0xbed5142c	-0.41616952
110	0xbe740ccd	-0.23833008
111	0xbea124ec	-0.31473482
112	0xbebeaf20	-0.37242985
113	0xbe4348f0	-0.19070792
114	0xbe825e6e	-0.2546267
115	0xbd6be3b2	-0.057590194
116	0xbdf4d3c0	-0.119544506
117	0xbe82ef10	-0.25573015
118	0xbe4a7a0c	-0.1977312
119	0xbea6404d	-0.32470933
120	0xbdc7018c	-0.09717092
121	0xbdcdf7ea	-0.100570515
122	0xbe04e201	-0.12976839
123	0xbe612a96	-0.21988901
124	0xbecfa7a1	-0.40557578
125	0x3cbe147d	0.023203129
126	0xbc6faf91	-0.014629261
127	0xbc9f5c94	-0.019453324
128	0xbd17c20b	-0.03705029
129	0xbd7d5e00	-0.061857224
130	0x3c3f71d4	0.011684854
131	0xbb10cc04	-0.002209426
132	0xbd234b35	-0.039866645
133	0x3b404021	0.0029335099
134	0xbda1cf99	-0.07900924
135	0x3c3c6af0	0.011500105
136	0xbd5c8914	-0.053841665
137	0xbc3e224c	-0.011604857
138	0xbc3a3e6b	-0.011367421
139	0x3c612b75	0.013743271
140	0x3d1016c5	0.035177965
141	0x3d0348bb	0.032051783
142	0xbd72acda	-0.059246875
143	0xbd3f4f86	-0.0467067
144	0x3ceeb834	0.02914057
145	0xbd3b3a06	-0.045709632
146	0xbc9b7a81	-0.018979313
147	0xbd622d6c	-0.0552191
148	0xbc848c59	-0.016180204
149	0x3d069b96	0.032863222
150	0x3dd28142	0.1027856
151	0xbd17ad6c	-0.037030622
152	0xbe34fd86	-0.17674837
153	0xbdf7f82d	-0.12107883
154	0xbe6c46f4	-0.23073941
155	0xbd2ca535	-0.04214974
156	0xbdc717fb	-0.09721371
157	0xbde0df02	-0.10980035
158	0xbd453d2f	-0.048154052
159	0x3cb52fac	0.022117458
160	0x3d731abf	0.05935168
161	0xbda8031f	-0.0820372
162	0x3cbfb538	0.023401842
163	0x3e1925c1	0.14955808
164	0x3d2c2383	0.042026054
165	0xbdd2d389	-0.102942534
166	0x3db5fac2	0.08885719
167	0xbe0e0e8e	-0.1387274
168	0xbddfe943	-0.10933163
169	0xbe1daac4	-0.15397173
170	0x3d922414	0.071357876
171	0x3dc85a6a	0.0978287
172	0xbdf62a17	-0.12019747
173	0xbe93f868	-0.28900456
174	0xbde258df	-0.11052107
175	0xbed5a648	-0.41728425
176	0xbd6ab165	-0.057298083
177	0xbd607572	-0.054799505
178	0xbe43b225	-0.19110925
179	0x3de49094	0.111603886
180	0xbf1cfbe6	-0.61321867
181	0xbeebfd06	-0.4609148
182	0xbd984cf0	-0.0743655
183	0xbe52dee2	-0.20592836
184	0x3e1de19f	0.15418099
185	0xbef081d3	-0.46974048
186	0xbef2698f	-0.4734616
187	0xbdf15058	-0.117829025
188	0xbd393a7e	-0.045221798
189	0x3d3695aa	0.044576325
190	0xbe8d5ce2	-0.27609926
191	0xbed34c96	-0.41269368
192	0xbeefe1c0	-0.4685192
193	0xbd9783bd	-0.07398174
194	0x3d67f36c	0.05662863
195	0xbe991919	-0.2990196
196	0xbefd3220	-0.49452305
197	0xbe5116d3	-0.20418863
198	0xbe6ee522	-0.23329595
199	0xbd504f96	-0.05085715
200	0xbd6adad1	-0.057337586
201	0xbcf30826	-0.029666971
202	0xbd29527b	-0.041338425
203	0xbc1efd67	-0.0097039705
204	0x3c7f5862	0.015585037
205	0xbdb063fe	-0.08612822
206	0x3cecd2ce	0.028909113
207	0xbc52ce18	-0.012866519
208	0xbbfeb4a0	-0.007772997
209	0xbd49c0ce	-0.04925614
210	0x3da30450	0.07959807
211	0x3ca8fe86	0.020629179
212	0xbd3a82a8	-0.04553476
213	0x3d822da6	0.06356363
214	0x3d25b30f	0.040453967
215	0xba143600	-0.00056537986
216	0x3cf9ea8a	0.030507345
217	0xbc04985e	-0.008092968
218	0x3cf839c9	0.030300992
219	0x3d262c02	0.040569313
220	0x3dd400d0	0.103517175
221	0xbcac49a9	-0.021031218
222	0xbd80d746	-0.0629106
223	0xbd1f2b66	-0.038859747
224	0x3ced0d98	0.028937146
225	0xbc24dd20	-0.010062486
226	0xbd43d37c	-0.04780911
227	0x3b47e02a	0.0030498602
228	0xbd3bdd0b	-0.0458651
229	0xbd8a36d8	-0.06748742
230	0xbce08b39	-0.027410137
231	0xbe023fe9	-0.12719692
232	0xbcfe5286	-0.03104521
233	0xbd243efd	-0.040099133
234	0xbdd19284	-0.10233024
235	0xbdb42dbd	-0.087977864
236	0xbce294a0	-0.02765876
237	0xbdb6aed0	-0.089200616
238	0xbd78835f	-0.06067216
239	0xbd1434ec	-0.036183283
240	0xbdde381a	-0.10850544
241	0x3c18f4f0	0.009335741
242	0x3cc17b59	0.023618387
243	0x3ca6ada5	0.020346472
244	0xbe14b2fd	-0.14521404
245	0xbd788d1c	-0.060681447
246	0xbdbad433	-0.09122505
247	0x3c474cf0	0.012164339
248	0xbca11932	-0.019665334
249	0x3ca9113c	0.0206381
250	0x3b6a3cdc	0.0035741841
251	0xbd064676	-0.03278204
252	0x3b7a78ca	0.0038218969
253	0x3ba2244d	0.004948175
254	0xbc3e2558	-0.011605583
255	0xbd0c749b	-0.03429089

fc1.bias f4 [120]
0	0xbf2f1d8c	-0.6840446
1	0xbf1548f7	-0.5831446
2	0x3f307b0d	0.6893776
3	0xbec13744	-0.37737477
4	0xbec28345	-0.37990776
5	0xbf2c34ed	-0.6726826
6	0x3e785b1e	0.24253508
7	0x3ec44822	0.38336283
8	0x3e417f92	0.1889632
9	0x3f2d0481	0.67585
10	0xbeb04b0d	-0.3443226
11	0xbfa07d29	-1.2538196
12	0xbea57671	-0.32316926
13	0xbe4dad42	-0.20085624
14	0x3f0ba25f	0.54544634
15	0x3e540a26	0.20706996
16	0xbe8dd170	-0.2769885
17	0x3c8a53ef	0.016885726
18	0xbed63c86	-0.4184305
19	0xbeda4c87	-0.4263651
20	0xbefe5415	-0.49673524
21	0xbe550745	-0.20803554
22	0xbea9958f	-0.33121917
23	0xbe0d2f57	-0.1378759
24	0x3f372cf3	0.7155296
25	0xbeaeafa4	-0.34118378
26	0x3e1546f6	0.1457785
27	0xbf15ec04	-0.58563256
28	0xbe7cf20e	-0.24701712
29	0x3f2c07c1	0.6719933
30	0xbe6f7e59	-0.23388042
31	0xbebc90f8	-0.36829352
32	0xbeb37af5	-0.35054746
33	0xbecf0b04	-0.40438092
34	0xbe878352	-0.26467377
35	0xbe24e4a3	-0.16102843
36	0x3ea0989d	0.31366435
37	0xbf1349d0	-0.57534504
38	0xbe98e841	-0.29864696
39	0xbf16c798	-0.58898306
40	0xbeaa7856	-0.33294934
41	0x3db4a206	0.08819966
42	0x3ed9099f	0.42390153
43	0xbef81fbb	-0.48461708
44	0x3c91ef59	0.017814325
45	0xbeb6628c	-0.3562206
46	0x3ecd7928	0.40131497
47	0x3da0e33a	0.0785584
48	0xbe550385	-0.20802124
49	0xbe97b825	-0.2963268
50	0xbedad7ca	-0.4274276
51	0xbe843598	-0.2582214
52	0xbe8bfa13	-0.2733923
53	0xbecefd86	-0.40427798
54	0xbeea9a0a	-0.45820647
55	0xbeefde66	-0.46849364
56	0xbef4f91e	-0.4784631
57	0xbe81db28	-0.25362515
58	0xbf0cea05	-0.55044585
59	0xbe9bf7db	-0.30462536
60	0xbe99d555	-0.30045572
61	0xbebfc352	-0.37453705
62	0xbf482490	-0.7818079
63	0x3f2ce28e	0.67533195
64	0xbf02cf0e	-0.5109719
65	0xbec76a2d	-0.38948193
66	0xbc1e4a70	-0.009661302
67	0xbe7ba300	-0.24573898
68	0x3f90ba77	1.1306905
69	0xbd625448	-0.055256158
70	0xbf148cb4	-0.58027196
71	0x3e9c5c29	0.30539063
72	0x3edfe24c	0.43727338
73	0xbe1e04e0	-0.15431547
74	0xbe9eed4a	-0.31040412
75	0xbed22851	-0.41046384
76	0xbe77fa38	-0.24216545
77	0xbe9a93ae	-0.30190796
78	0xbec8cd38	-0.3921907
79	0xbde98f2c	-0.11404261
80	0xbe6afdbd	-0.22948356
81	0xbebf4d5d	-0.3736371
82	0xbf1d050a	-0.61335814
83	0xbec28f14	-0.37999785
84	0xbec6a3f2	-0.38796955
85	0xbec9a0a3	-0.3938037
86	0xbe0f6dfe	-0.14006802
87	0xbec4cff8	-0.38439918
88	0xbf749f13	-0.9555523
89	0xbf017e8a	-0.5058371
90	0x3c71b27b	0.014752026
91	0xbd85105a	-0.064972594
92	0xbe6cca56	-0.2312406
93	0xbf167e61	-0.5878659
94	0xbeb2d293	-0.3492628
95	0xbf29c29a	-0.66312563
96	0xbe6c5522	-0.2307935
97	0x3e70678c	0.23477
98	0xbe8b5038	-0.2720964
99	0xbedc26ec	-0.42998445
100	0xbf1ebaf7	-0.62004036
101	0xbea83e32	-0.3285995
102	0xbee06cc6	-0.43832988
103	0xbea5b7b1	-0.32366708
104	0xbe594966	-0.21219406
105	0xbcbe2cd8	-0.023214743
106	0xbeaf2894	-0.34210646
107	0xbe83cbb1	-0.25741342
108	0xbe87c8da	-0.26520425
109	0xbf784fe4	-0.96996903
110	0xbea5ee61	-0.3240843
111	0x3e6db990	0.23215318
112	0x3e9fedf9	0.31236246
113	0xbe8ffcef	-0.2812266
114	0x3f437f7b	0.76366395
115	0xbe8c3c9d	-0.27389994
116	0xbe680de6	-0.22661552
117	0xbe52667f	-0.20546912
118	0xbe51637a	-0.20448104
119	0xbe68199d	-0.2266602

fc2.weight f4 [84, 120]
0	0xbd451f35	-0.048125464
1	0x3c48fce0	0.012267321
2	0x3ca44646	0.02005304
3	0x3c2c4e45	0.010516708
4	0xbd40bc4c	-0.047054574
5	0xbe07cd7c	-0.1326198
6	0xbd285e36	-0.04110547
7	0x3dc9692e	0.098345146
8	0xbde8c48e	-0.11365615
9	0xbded7d4d	-0.11596165
10	0x3d6c1944	0.057641283
11	0xbd8cbd80	-0.06872082
12	0xbd7fe02f	-0.062469658
13	0x3d136f7e	0.035995
14	0xbe12c2af	-0.14332078
15	0xbd9e58d1	-0.07731784
16	0xbd2f30a4	-0.042770997
17	0xbd466587	-0.048436668
18	0x3dca2c26	0.09871702
19	0xbda3a25a	-0.079899505
20	0xba9e8d44	-0.0012096544
21	0xbd19d39f	-0.037555333
22	0xbcbb0f8a	-0.022834558
23	0x3dc96d73	0.09835329
24	0x3d06d198	0.032914728
25	0xbd82b14a	-0.063814715
26	0xbdd42606	-0.10358815
27	0xbe05bf29	-0.13061203
28	0x3e04db96	0.1297439
29	0xbbf1a70b	-0.0073746494
30	0xbd9ec47b	-0.077523194
31	0xbdecfb76	-0.115714
32	0xbdb0fe15	-0.08642212
33	0x3b3c2958	0.0028711166
34	0xbdd41332	-0.10355224
35	0xbe0a1929	-0.1348616
36	0xbe4a64c5	-0.19765003
37	0xbd13beb0	-0.036070526
38	0xbd091dd9	-0.03347573
39	0xbde39ff3	-0.11114492
40	0x3cfdcf68	0.030982688
41	0xbea18c36	-0.31552285
42	0xbdf2ce88	-0.11855799
43	0x3cbb804b	0.022888323
44	0xbd489f73	-0.048980188
45	0x3c9d5728	0.019206598
46	0xbe6a2dc4	-0.2286902
47	0xbc1b90f9	-0.009495013
48	0xbd43549e	-0.04768812
49	0x3ae02738	0.0017101532
50	0xbe106f17	-0.14104877
51	0x39f60341	0.000469232
52	0xbdbf4965	-0.09340171
53	0x3ddc449a	0.10755272
54	0x3d1b4554	0.037907913
55	0xbd295aaa	-0.04134623
56	0x3d2ad4e0	0.04170692
57	0xbd2dbbbe	-0.042415373
58	0x3e0b99c7	0.1363288
59	0xbd703b14	-0.05865009
60	0x3db04bcb	0.08608206
61	0xbd8c5315	-0.06851784
62	0xbde694b2	-0.1125883
63	0xbdc096d4	-0.09403768
64	0xbd751bb2	-0.059840865
65	0x3c3e72a8	0.011624016
66	0xbe14d5a1	-0.14534618
67	0x3cd7be4f	0.026335863
68	0xbd3d9f88	-0.04629472
69	0xbcd6a933	-0.026203727
70	0xbe106526	-0.14101085
71	0xbe382a19	-0.17984809
72	0x3d964c18	0.073387325
73	0x3d188d5d	0.03724419
74	0xbe11ec4b	-0.14250295
75	0xbdd8feaa	-0.10595448
76	0xbd6d38c9	-0.057915483
77	0xbca144d8	-0.019686148
78	0xbd410fec	-0.047134325
79	0xbd8b48de	-0.06801008
80	0xbdb67c10	-0.08910382
81	0xbd70c342	-0.058779962
82	0xbd7c01c4	-0.06152512
83	0xbd8d5ac1	-0.069020756
84	0xbe1fa5ec	-0.15590638
85	0xbcf8f6ff	-0.030391214
86	0xbd1f7722	-0.038931973
87	0xbd76c949	-0.060250554
88	0xbe690e52	-0.22759369
89	0x3cf76543	0.030199653
90	0xbe4b0b7d	-0.19828601
91	0xbc011ba0	-0.0078801215
92	0xbd303cdf	-0.0430268
93	0xbb66ca1b	-0.003521568
94	0xbe16b8c5	-0.14718921
95	0xbe60343f	-0.2189493
96	0x3d94ca85	0.0726519
97	0xbe635bae	-0.22202942
98	0xbc33d633	-0.010976362
99	0x3c009ac4	0.007849399
100	0xbd8d89e0	-0.06911063
101	0xbd3ee357	-0.046603527
102	0xbdc4896f	-0.09596526
103	0x3d0d809d	0.034546483
104	0x3ae9b659	0.0017830833
105	0xbe2c0877	-0.16800104
106	0xbda55991	-0.08073724
107	0xbd978945	-0.07399229
108	0x3d6f3879	0.058403466
109	0xbe0bd5eb	-0.13655822
110	0xbdca229a	-0.09869881
111	0xbe37b440	-0.17939854
112	0xbe4223ec	-0.18959016
113	0xbd8a632f	-0.06757199
114	0xbdd1c387	-0.10242372
115	0x3cf47201	0.029839518
116	0xbe08a676	-0.1334475
117	0x3c789b22	0.015173705
118	0x3cc336b5	0.023829797
119	0xbc551547	-0.013005561
120	0xbdaadbc5	-0.08342699
121	0x3cd90ca2	0.026495282
122	0xbe5eb49b	-0.21748583
123	0xbd47e8a0	-0.048805833
124	0x3dd482d1	0.10376514
125	0x3d7ee0f8	0.062226266
126	0xbe4c201d	-0.19934125
127	0xbe87f540	-0.26554298
128	0xbebf1223	-0.37318525
129	0xbdf40d4e	-0.119166
130	0xbdefccb5	-0.11708967
131	0xbe82c1fc	-0.25538623
132	0xbc83bfb8	-0.01608263
133	0x3d37688c	0.044777438
134	0xbec92750	-0.39287806
135	0x3e1e5fd1	0.15466239
136	0xbd64ac02	-0.055828102
137	0x3c597a2d	0.013273758
138	0xbd5852c9	-0.052813325
139	0xbdd536e3	-0.104108594
140	0xbdc5a88e	-0.0965129
141	0x3c8a9b0c	0.016919635
142	0xbe4043a8	-0.18775809
143	0x3d835469	0.06412584
144	0x3e721668	0.2364136
145	0xbdd03704	-0.101667434
146	0xbe7dc744	-0.24783045
147	0xbe1806de	-0.1484637
148	0xbe278109	-0.16357817
149	0xbdd81a1c	-0.10551855
150	0x3c5267dd	0.012842146
151	0xbdab6187	-0.08368211
152	0xbd6bc362	-0.05755938
153	0x3bb76692	0.005596944
154	0xbd765d73	-0.060147714
155	0xbd02bd73	-0.031918954
156	0xbf09a421	-0.53766066
157	0xbaf14730	-0.0018408056
158	0xbe2cae76	-0.16863427
159	0xbe23a741	-0.15981771
160	0x3de9a8fa	0.11409183
161	0xbe9d180d	-0.30682412
162	0xbe276668	-0.16347659
163	0xbdf634d4	-0.12021795
164	0xbe1abeb0	-0.15111804
165	0x3e2693f3	0.16267376
166	0x3ba22efe	0.0049494496
167	0xbe43d588	-0.19124424
168	0x3c14de02	0.009086134
169	0xbda63bb3	-0.081168555
170	0x3d3a03a2	0.04541362
171	0xbdbd0fe4	-0.092315465
172	0xbe1b0308	-0.15137875
173	0xbd8c4a7a	-0.06850143
174	0xbd3870f4	-0.045029595
175	0xbe16589c	-0.1468224
176	0xbdc50bb5	-0.096213736
177	0x3d20d0e2	0.039261706
178	0xbb765438	-0.003758682
179	0x3d8fe1da	0.070255
180	0x3c0313ad	0.008000297
181	0x3b339590	0.0027402379
182	0x3d5d6aee	0.054057054
183	0xbe65921b	-0.22419016
184	0xbdaa3007	-0.08309942
185	0xbe0ba11d	-0.13635679
186	0xbe930a39	-0.28718737
187	0x3d6de8c4	0.05808331
188	0x3d06d2a6	0.032915734
189	0xbe5690a9	-0.20953621
190	0xbdce9b2d	-0.10088191
191	0xbe02cb7c	-0.12772936
192	0xbd769125	-0.060197014
193	0xbd169f28	-0.036772877
194	0xbdeef3cb	-0.116675936
195	0xbcf3e7e1	-0.029773654
196	0x3cef115f	0.029183088
197	0xbdecb4e4	-0.1155794
198	0xbe5d186e	-0.2159135
199	0x3cd88474	0.026430346
200	0xbdd67173	-0.104708575
201	0xbd63fd2a	-0.055661358
202	0xbcf145bf	-0.029452203
203	0xbec52804	-0.38507092
204	0xbaf4c570	-0.0018674564
205	0x3d9fd642	0.07804538
206	0x3d06784c	0.032829568
207	0xbdd7158a	-0.10502155
208	0xbe24a23d	-0.16077514
209	0xbe1bc0d1	-0.15210272
210	0xbe0a47a9	-0.13503899
211	0xbddc81eb	-0.107669674
212	0xbd6a778c	-0.057242915
213	0xbdbd63f2	-0.09247579
214	0x3a7ba6a0	0.0009599719
215	0xbeb33ebf	-0.3500881
216	0xbd5b6a3b	-0.053568106
217	0xbe73b7e7	-0.23800622
218	0xbd50cebd	-0.05097841
219	0x3d71ae4c	0.059004113
220	0xbdf8dd58	-0.12151593
221	0x3d2e3a66	0.04253616
222	0xbd19c955	-0.03754552
223	0xbd253939	-0.040337775
224	0xbde40d85	-0.11135391
225	0x3bc41119	0.0059834835
226	0xbc9e4ece	-0.019324686
227	0x3d73f9c6	0.059564374
228	0xbdd568f2	-0.10420407
229	0xbeedcf39	-0.4644716
230	0xbd85ff3f	-0.06542825
231	0xbe4c8579	-0.19972791
232	0xbece415e	-0.40284246
233	0xbcb43b00	-0.02200079
234	0xbe7edae5	-0.24888189
235	0xbd8970da	-0.06710978
236	0xbe1c03fa	-0.15235892
237	0xbcd1a479	-0.025591122
238	0x3980b440	0.0002454836
239	0x3df4daa8	0.11955768
240	0xbd05e02c	-0.03268449
241	0x3c9e3363	0.019311612
242	0xbe4805fb	-0.19533531
243	0xbe3aceb6	-0.18242916
244	0xbdb0a5d8	-0.08625382
245	0xbb909658	-0.0044124536
246	0xbd074a7f	-0.03303003
247	0xbe496ce6	-0.19670448
248	0x3c6980da	0.014251912
249	0xbe82cc48	-0.2554648
250	0xbd5e7084	-0.054306522
251	0xbe2cec6a	-0.1688706
252	0xbdef6bbc	-0.116904706
253	0xbccfd9b6	-0.025372367
254	0xbe86f0f2	-0.26355702
255	0xbe3cfc4d	-0.1845562

fc2.bias f4 [84]
0	0xbe894b56	-0.2681529
1	0xbf198601	-0.599701
2	0xbe9e4c2c	-0.3091749
3	0xbe34da51	-0.17661406
4	0xbe8bf251	-0.2733331
5	0xbdc034cb	-0.093850695
6	0xbea5a99b	-0.3235596
7	0xbea064f3	-0.31327018
8	0xbecddbf2	-0.40206867
9	0xbe7dab23	-0.24772315
10	0x3f6632aa	0.8992106
11	0xbe82cb1c	-0.25545585
12	0xbdf129ca	-0.11775549
13	0xbe83185b	-0.2560452
14	0x3e04e3b7	0.12977491
15	0xbea50b17	-0.32235023
16	0xbedd07bc	-0.43169963
17	0xbe6464b6	-0.22304043
18	0xbec72343	-0.3889409
19	0xbeec849d	-0.46194926
20	0xbe97cd6f	-0.2964892
21	0xbe8537ba	-0.26019078
22	0xbeb59e4d	-0.35472336
23	0xbdf38712	-0.11890997
24	0xbf013b63	-0.5048124
25	0xbea5b4ea	-0.3236459
26	0xbe33fcd2	-0.17576912
27	0xbe0465c2	-0.12929443
28	0xbe00cc9a	-0.1257805
29	0xbe5e288c	-0.21695155
30	0xbe84a7ad	-0.25909176
31	0xbeb39fc1	-0.3508282
32	0xbe959ea7	-0.29222605
33	0xbe84664d	-0.258593
34	0xbecc691f	-0.3992395
35	0xbeac1e04	-0.3361665
36	0xbe476e5c	-0.19475693
37	0xbe040696	-0.12893137
38	0xbe12b038	-0.14325035
39	0x3f788602	0.9707948
40	0xbe2b100d	-0.16705342
41	0xbe93efbe	-0.28893846
42	0xbe913f2b	-0.28368506
43	0xbe97f9f2	-0.2968288
44	0xbeb51517	-0.35367653
45	0xbe5c1c34	-0.21495134
46	0xbea76605	-0.32695022
47	0xbe2ea445	-0.17054851
48	0xbea794c8	-0.327307
49	0x3e57bdeb	0.21068542
50	0xbf0ad68a	-0.5423361
51	0xbf070757	-0.52745575
52	0xbe00fb37	-0.12595831
53	0xbd8a6351	-0.06757224
54	0xbe8704c4	-0.26370823
55	0xbe9a4ed3	-0.30138263
56	0xbe211aa8	-0.15732825
57	0xbe6351ce	-0.22199175
58	0xbe81b608	-0.2533419
59	0xbee5d1db	-0.4488667
60	0xbe76cd3f	-0.24101733
61	0xbe5b3aaa	-0.21409097
62	0xbf0e5a42	-0.5560647
63	0x3f62467c	0.883888
64	0xbe6c2f98	-0.2306503
65	0xbdb95106	-0.09048657
66	0xbe84f34b	-0.25966868
67	0xbe5898b8	-0.21152008
68	0x3eb7e80a	0.3591922
69	0xbde6f18a	-0.11276539
70	0xbe421f1d	-0.18957181
71	0xbed56c17	-0.41684029
72	0xbe871c46	-0.26388758
73	0x3d51b8e2	0.05120171
74	0xbe8bd17c	-0.2730826
75	0xbeeaf8a5	-0.45892826
76	0xbebe7caf	-0.372045
77	0x3f72746a	0.94708884
78	0x3f553e5b	0.8329827
79	0xbe56b243	-0.20966439
80	0xbe9c60ba	-0.30542547
81	0xbe523aa7	-0.20530187
82	0xbe81db26	-0.2536251
83	0x3d8e1d55	0.069391884

fc3.weight f4 [10, 84]
0	0xbe036e98	-0.12835157
1	0xbf203a66	-0.6258911
2	0xbe4debd8	-0.20109499
3	0xbe6d3b7e	-0.23167226
4	0xbdb9cd2c	-0.090723366
5	0xbee68175	-0.45020643
6	0xbdfc65b5	-0.123240866
7	0xbea9a11f	-0.33130738
8	0xbef0c6e0	-0.4702673
9	0xbd591d82	-0.053006656
10	0xbe1f86c6	-0.15578756
11	0xbd47240a	-0.048618354
12	0xbe126151	-0.14294936
13	0xbed87469	-0.42276314
14	0xbedea891	-0.4348798
15	0xbec79b35	-0.389856
16	0xbf8b078b	-1.0861677
17	0xbf17cbd4	-0.5929539
18	0xbeb9c13a	-0.36280233
19	0xbe939585	-0.28825012
20	0xbe891aa3	-0.26778135
21	0xbd4c742e	-0.049915485
22	0xbeb8e28f	-0.3611035
23	0xbd257314	-0.04039295
24	0xbf6e4d24	-0.9308646
25	0xbf01c784	-0.5069506
26	0xbe45fe39	-0.1933526
27	0xbe2cfe1a	-0.16893807
28	0xbc998798	-0.018741414
29	0xbe5596a2	-0.20858243
30	0xbe887457	-0.2665126
31	0xbf1d6a20	-0.6149006
32	0xbd84bd5e	-0.064814314
33	0xbe8afa09	-0.27143887
34	0xbe3049c3	-0.17215638
35	0xbdf4cb75	-0.11952869
36	0xbe0ddab2	-0.13852957
37	0xbeec2920	-0.46125126
38	0xbf2485dc	-0.64266753
39	0x3e30b950	0.17258191
40	0xbda237bb	-0.07920786
41	0xbeab18cd	-0.3341736
42	0xbb2b5fd8	-0.0026149657
43	0xbe84df07	-0.25951406
44	0xbe79b118	-0.24383962
45	0xbde9565f	-0.11393427
46	0xbf0efd8b	-0.55855626
47	0xbde856e6	-0.113446996
48	0xbf37910f	-0.71705717
49	0xbe69e1fc	-0.22840112
50	0xbee0dcea	-0.43918544
51	0xbec8a858	-0.39190936
52	0xbdbb57a2	-0.09147574
53	0xbf3b5144	-0.73170877
54	0xbde7f7d0	-0.11326563
55	0xbd86cf04	-0.06582454
56	0xbea02422	-0.31277567
57	0xbe77f9d8	-0.24216402
58	0xbf278d2c	-0.65449786
59	0xbe663696	-0.2248176
60	0xbe326a78	-0.17423427
61	0xbea7e690	-0.32793093
62	0xbed6e496	-0.41971272
63	0x3d429c1d	0.047512162
64	0xbe89478a	-0.26812392
65	0xbf29eed6	-0.6638006
66	0xbec556f5	-0.38542905
67	0xbd485f0a	-0.04891876
68	0xbe60a278	-0.21936977
69	0xbea11075	-0.31457868
70	0xbd26035a	-0.04053054
71	0xbe8ba7d0	-0.27276468
72	0xbe35cdfc	-0.17754358
73	0xbec7708d	-0.38953057
74	0xbdb66aec	-0.089071125
75	0xbeead7e8	-0.45867848
76	0xbeecd28a	-0.4625438
77	0x3e22e7eb	0.15908782
78	0x3e63d224	0.22248131
79	0xbde96926	-0.113970086
80	0xbe893400	-0.26797485
81	0xbe53a743	-0.20669274
82	0xbe71ece8	-0.23625529
83	0xbf1aed94	-0.60518765
84	0xbeacbdc3	-0.33738527
85	0xbf5ce937	-0.8629336
86	0xbe8f8a5c	-0.28035247
87	0xbe655feb	-0.22399871
88	0xbdfa89ca	-0.122333124
89	0xbe998345	-0.29982963
90	0xbe4488f4	-0.19192868
91	0xbf3d0c53	-0.7384693
92	0xbf0a191e	-0.53944576
93	0xbe1d2998	-0.15347898
94	0x3e950bae	0.29110473
95	0xbe7f8f7b	-0.24957077
96	0xbe4a1b87	-0.19737063
97	0xbe64c3bd	-0.22340293
98	0xbe9c8032	-0.30566555
99	0xbe344402	-0.17604068
100	0xbf03a1ec	-0.5141895
101	0xbee7bf60	-0.45263195
102	0x3ad5f398	0.0016323207
103	0xbef0f110	-0.47058916
104	0xbe63097f	-0.22171591
105	0xbe1c97d7	-0.15292297
106	0xbe4cd463	-0.20002894
107	0x3c81a568	0.015825942
108	0xbf66ab77	-0.90105385
109	0xbf1430e7	-0.5788712
110	0xbe2771b7	-0.16351973
111	0xbd74fd26	-0.059811734
112	0xbe3d7394	-0.18501121
113	0xbefe6e80	-0.4969368
114	0xbd0f1a10	-0.034936965
115	0xbecb8489	-0.39749554
116	0xbeef1a3f	-0.46699712
117	0xbdf560c8	-0.1198135
118	0xbe2a0757	-0.16604362
119	0xbc9caffa	-0.01912688
120	0xbe4aac4e	-0.19792292
121	0xbf3a2492	-0.7271205
122	0xbe54b044	-0.20770365
123	0xbed860ee	-0.4226145
124	0xbd7e0a44	-0.06202151
125	0xbebf924e	-0.3741631
126	0xbcdf33cd	-0.02724638
127	0xbd98c242	-0.07458927
128	0xbe80d828	-0.25164914
129	0xbd92e1d7	-0.07171982
130	0xbef62f8a	-0.48083144
131	0xbefd40d3	-0.4946352
132	0xbef15dc5	-0.47141853
133	0xbdb8792b	-0.09007486
134	0xbf20b480	-0.6277542
135	0xbef1fda8	-0.47263837
136	0xbe746980	-0.2386837
137	0xbf1ff552	-0.62483704
138	0xbe2a37bd	-0.16622825
139	0xbc136a84	-0.008997563
140	0xbe352f9c	-0.17693943
141	0xbdf45e94	-0.11932102
142	0xbf3a6702	-0.7281343
143	0xbed4b44e	-0.41543812
144	0xbe0ca398	-0.13734281
145	0xbea099c2	-0.31367308
146	0xbf6870a8	-0.907969
147	0xbacbf370	-0.0015560221
148	0xbe607eb2	-0.2192333
149	0xbf496601	-0.7867127
150	0xbecaf1f8	-0.39637733
151	0xbe99dc0d	-0.30050698
152	0x3cae5646	0.021281373
153	0xbea84ead	-0.32872525
154	0x38b06e00	8.412823e-05
155	0xbf09cf33	-0.53831786
156	0xbe606949	-0.21915163
157	0xbda21be5	-0.07915477
158	0xbe2252b2	-0.15851858
159	0xbe9e952c	-0.30973184
160	0xbe56a97d	-0.20963092
161	0x3e1cf2e5	0.15327032
162	0x3d435aca	0.047694005
163	0xbe71aed7	-0.23601852
164	0xbe0448fe	-0.1291847
165	0xbd5c2854	-0.053749397
166	0xbe269612	-0.16268185
167	0xbe3c7121	-0.1840253
168	0xbe24f50f	-0.16109107
169	0xbf3527cb	-0.70763844
170	0xbe564bf2	-0.20927408
171	0xbe5d30a5	-0.21600588
172	0xbe891cac	-0.26779687
173	0xbed64f8a	-0.41857558
174	0xbdaebac3	-0.08531716
175	0xbf04db4d	-0.51897126
176	0xbf052e0f	-0.52023405
177	0xbdaaf83d	-0.08348129
178	0xbeac28bc	-0.33624828
179	0xbe36b1da	-0.17841282
180	0xbddad7dd	-0.10685704
181	0xbed2d2f2	-0.41176564
182	0xbe85410e	-0.26026195
183	0xbe841bdb	-0.25802502
184	0xbf5a658e	-0.8531121
185	0xbf8ae11b	-1.0849947
186	0xbef33398	-0.475003
187	0xbea709d2	-0.3262468
188	0xbef52e88	-0.47887063
189	0xbe968aa5	-0.29402652
190	0xbe9c09e9	-0.3047631
191	0xbe7adb9d	-0.24497838
192	0xbf6c41c0	-0.92287827
193	0xbec7f9e2	-0.39057833
194	0xbe39de1f	-0.18151139
195	0xbe40603e	-0.18786713
196	0xbdb8f7f4	-0.09031668
197	0xbe3675eb	-0.1781842
198	0xbed00ac9	-0.40633228
199	0xbfc23ad7	-1.5174206
200	0xbe128cd2	-0.14311531
201	0xbe33b181	-0.17548181
202	0xbdc464e9	-0.095895596
203	0xbe438553	-0.19093828
204	0xbe931826	-0.2872936
205	0x3e0c6262	0.13709405
206	0xbf821ed5	-1.0165659
207	0x3e4f6686	0.20253953
208	0xbe44296b	-0.19156425
209	0xbf050c40	-0.51971817
210	0xbebac425	-0.3647777
211	0xbe2f2c5c	-0.17106766
212	0xbe37664f	-0.17910121
213	0xbe487670	-0.1957643
214	0xbe575aa6	-0.21030673
215	0xbdacc0a6	-0.08435182
216	0xbf690328	-0.9102044
217	0xbeb437b4	-0.35198748
218	0xbe8de44f	-0.27713248
219	0xbef17ca9	-0.4716542
220	0xbe308f7e	-0.17242238
221	0xbf3ea562	-0.74471104
222	0xbe76b4b7	-0.24092375
223	0xbd53a934	-0.051675037
224	0xbe5d0bad	-0.21586485
225	0xbd8450de	-0.06460737
226	0xbe8ab65a	-0.27092248
227	0xbe471c42	-0.19444373
228	0xbe865e98	-0.26244044
229	0xbecd3619	-0.40080336
230	0xbe959390	-0.29214144
231	0xbe47cb6c	-0.19511193
232	0xbf8ead25	-1.114659
233	0xbc508792	-0.012727635
234	0xbed4c7f2	-0.41558796
235	0xbf19a612	-0.6001903
236	0xbe526d9a	-0.20549622
237	0x3e2359f9	0.1595229
238	0xbe90dc0e	-0.28292888
239	0xbe546c73	-0.20744495
240	0xbe6ea780	-0.23306084
241	0xbee4b4d9	-0.44669226
242	0xbd0a97b5	-0.033836085
243	0xbed1ae26	-0.40953177
244	0xbef52af3	-0.4788433
245	0xbe9a6af0	-0.30159712
246	0xbeb57ef5	-0.35448423
247	0xbdf44b72	-0.119284526
248	0xbebe735f	-0.37197396
249	0xbe05ac8f	-0.13054107
250	0xbe2bc284	-0.1677342
251	0xbe1dbc01	-0.15403749
252	0xbe5d5265	-0.21613462
253	0xbea71554	-0.3263346
254	0xbd8bbc30	-0.06823003
255	0xbdfa65b7	-0.12226432

fc3.bias f4 [10]
0	0xbdc43b04	-0.09581569
1	0xbd834fb2	-0.06411685
2	0xbd39e641	-0.045385603
3	0x3eb1cbcd	0.347258
4	0xbeb2af65	-0.3489944
5	0x3dd65707	0.10465818
6	0x3d9c5e66	0.076351926
7	0xbe96a33e	-0.2942142
8	0x3e978753	0.29595432
9	0x3ea7c946	0.32770747
