fedprox_model_mu=1.pt (torch, 251877 bytes, 10 tensors)

conv1.weight f4 [6, 3, 5, 5]
00000000: e29e 293e f884 123e 967c 71be a617 28be
00000010: 6a23 0dbe 5aa3 91bd 2761 b83d 7bd5 99bc
00000020: dd2d 1dbe ee57 4dbe 136d f4bd a8b4 21bd
00000030: 0650 83bd b4a4 47bd aae8 27bd 7578 bbbd
00000040: b6bf c9bd fed7 e6bc d06f 90bd fdf6 8e3d
00000050: 5dca 55be a763 efbd 2c70 ed3c d878 303d
00000060: 4e72 4b3e fdb8 313d de1b b33d 20a9 50be
00000070: c607 c7be 8e26 9fbe af05 0ebc 3460 f6bd
00000080: f2a7 a1bd 9c94 49be fe6a d0be bcc6 26be
00000090: 9cbc b3bd 1c08 7bbd 1220 f6bc 83f6 2fbe
000000a0: 5b85 a3bd 3724 b7bd 3e0a 75bd 202e 843a
000000b0: e3b1 35be d7a6 93bd b6c7 debd f792 22be
000000c0: 31ca 2fbe a2e3 d7bd 01e9 043f 7c8e e73e
000000d0: 1fe5 6d3d fdda 1fbe 8027 63be 7d64 873e
000000e0: d781 f33e b062 413e 772c aabd b2eb 5ebe
000000f0: 5bcf 813e 026e 9c3e 62a3 d83e 434b aa3e
00000100: 4e91 393e 59e4 8d3e eaf2 9e3e f75f 6f3e
00000110: b5f8 833e 3d35 ae3e 4431 e43e 7a89 be3e
00000120: 3761 cc3e 7cd1 6e3e 1769 ca3e a401 07bd
00000130: ccf1 6a3d 3866 b8bd 55b9 70bd d100 acbd
00000140: 5b19 06bd 5297 40be 6e68 10be dcc6 38be
00000150: 7dac b8bd fbae 78be 8ded 43be ce0e 39be
00000160: 9018 3fbe 9a4d 1abe 5bea 15be 277d 5abe
00000170: 4409 abbe 1324 afbe ea7e afbe bc88 c4bd
00000180: 1822 83be 7daa 69be 4678 0bbe 5082 043b
00000190: 5f13 e93d 9915 f43d 915a 293d da67 0c3d
000001a0: a9de 843c e5e0 e73c e2cb f4bd fbd1 38bd
000001b0: f0d0 c2bd 58f2 0ebe 86eb f0bc 52c1 58bd
000001c0: 1764 4ebd b993 8abc 9265 abbd 1c32 bcbc
000001d0: fed8 a0bd 7368 febd d6bb 2abe c0f4 07be
000001e0: 6cb1 213e e374 513d 7308 11bd 8b35 8b3d
000001f0: 5c32 6a3b 3294 8c3e 4394 ab3e 0b93 d13e
00000200: d2f5 023f 690b da3e 38a8 0a3e 6161 933e
00000210: e4ed 8b3e 9e5c b73e 0265 d23e 2f2c bf3e
00000220: 1261 913e 8987 923e 4870 b23e a95a ae3e
00000230: 6879 823e d44d 693e b46d 8c3e 7413 ab3e
00000240: f204 cd3e 82cf cd3e 0771 eb3e 0c41 af3e
00000250: 9c0e 9a3e a4f8 e23e 75c5 7bbe 8455 63bd
00000260: 011c 843d f724 d03d f52d b93d b1d4 8bbe
00000270: cae4 d53d 4d3b 133e e478 493e 2af5 283e
00000280: ff46 91be 9ffe 023e 19c3 7e3e 432d 453e
00000290: ca34 803d a3e6 0ebe 06dd 803e ca8f 473e
000002a0: 6aa1 433e 2216 7b3e 721a bfbc 1076 243e
000002b0: 91b9 b23e 5d62 ff3d aa43 cc3e 77b3 3abf
000002c0: eb29 1abf 1458 8bbe 711e eebd f529 19bd
000002d0: 3f6f 0fbf d148 f3bd 8831 d63c bd16 c3bd
000002e0: d8ac 78bc 50f3 1dbf 219e 38be 7131 2bbd
000002f0: 26a8 843d bc06 893d da2a c3be b000 cdbd
00000300: a2cb d13d 2632 1cbe e852 25bd 4ed7 eabe
00000310: 54c1 6dbe 482d 253d 4e24 42bd a9d5 c2bd
00000320: c652 8dbe 390f bfbd 8e76 7a3e 7621 c33e
00000330: 1bb4 a53e 4e05 1fbe b573 0a3e 397e bf3e
00000340: b872 f63e 581f bd3e bd72 42be 6990 6a3e
00000350: 97bb ca3e 5866 3d3e 51dd 8c3e f311 2bbe
00000360: d433 143e c02c 493e f814 383e 38c7 933d
00000370: 7079 1f3c 416e 163e c1d2 fe3d 1d04 ec3d
00000380: e362 4f3e b253 e83d 7ccb 803e 4c62 7d3d
00000390: 1c65 d03c 5c08 2fbe 00d1 8e3e da45 b63e
000003a0: 2240 8d3e 9e80 5a3d fe5e 963c 52c5 b83e
000003b0: bed8 d33e b474 ea3e b923 a43e 4811 d13e
000003c0: da6c a03e 3906 8e3e 83fb 353e b63c 723e
000003d0: 786f 5e3e 1447 91be 74ab debe 8511 fbbe
000003e0: d0e3 dabe e082 9bbe 5fe8 363e 7eca 473e
000003f0: 85c4 163e 2dca 0e3e 36a1 443e 30d4 8bbe
0.16564515 0.14308536 -0.23582682 -0.16415271 -0.1378304 -0.07111235 0.09002905 -0.018778553
-0.15349527 -0.20053074 -0.11934867 -0.039478928 -0.06411748 -0.048741058 -0.04099337 -0.09153835
-0.09851019 -0.028179165 -0.070525765 0.06980703 -0.20877977 -0.11688929 0.028984152 0.043083996
0.19867823 0.04338931 0.087455496 -0.20377016 -0.38873118 -0.31084102 -0.008668347 -0.12030068
-0.07893361 -0.19685596 -0.4070663 -0.16286749 -0.08776209 -0.06128703 -0.03004459 -0.1718388
-0.0798442 -0.08942454 -0.05982422 0.0010084547 -0.1774364 -0.072095565 -0.108779356 -0.15876375
-0.17166974 -0.105414644 0.51918036 0.45225894 0.058079835 -0.15610881 -0.22183037 0.26443854
0.47559997 0.18885303 -0.08309262 -0.21769598 0.25353512 0.3055268 0.4231215 0.33260545
0.18121836 0.27713278 0.31044704 0.23376451 0.25775686 0.34024993 0.44568837 0.3721426
0.3991792 0.233221 0.39533302 -0.03296055 0.0573595 -0.09003872 -0.058770496 -0.08398593
-0.032739025 -0.18807724 -0.14102337 -0.18044609 -0.090172745 -0.242855 -0.19133587 -0.18072054
-0.18661714 -0.15068665 -0.14640181 -0.21336804 -0.33405507 -0.3420721 -0.34276515 -0.095963925
-0.2561195 -0.22818942 -0.136201 0.0020219274 0.11380648 0.11918182 0.041346136 0.034278728
0.016219454 0.02830548 -0.1195295 -0.045122128 -0.09512508 -0.13959634 -0.029409181 -0.05291874
-0.050388422 -0.016916143 -0.083689824 -0.022973113 -0.07853888 -0.12422266 -0.16673216 -0.13276958
0.15790337 0.051136862 -0.03540845 0.06797322 0.0035735583 0.27456814 0.33511552 0.40932497
0.5115634 0.4258683 0.13540733 0.28785232 0.27329934 0.3581285 0.41092688 0.37338397
0.2839437 0.2861903 0.3485129 0.34053543 0.2548325 0.22783595 0.27427447 0.3341328
0.40042835 0.40197378 0.4598467 0.34229314 0.3008927 0.44330323 -0.24587043 -0.055501476
0.06450654 0.101633005 0.09041969 -0.27310708 0.10444029 0.1437809 0.19675022 0.16499773
-0.28374478 0.12792443 0.24879111 0.19255547 0.06260069 -0.13955168 0.25168628 0.19488445
0.19104543 0.24520162 -0.02332804 0.16060662 0.349072 0.12469933 0.39895374 -0.7293009
-0.6022021 -0.27215636 -0.116269 -0.03739353 -0.56029123 -0.11879123 0.026146665 -0.09525821
-0.015177928 -0.6169939 -0.18029071 -0.041795198 0.06477384 0.066907376 -0.3811863 -0.10009897
0.10243918 -0.15253505 -0.04036227 -0.4586739 -0.2321828 0.040326387 -0.047397904 -0.09513409
-0.27602214 -0.09329075 0.24459288 0.38111466 0.32363972 -0.15529367 0.13520701 0.37400988
0.48134398 0.36937976 -0.18989082 0.2290665 0.39596245 0.18496072 0.275126 -0.16706066
0.14472896 0.19645977 0.17976749 0.07215732 0.009733543 0.14690496 0.12442542 0.11524222
0.20252566 0.113440886 0.25155246 0.06186132 0.025438838 -0.17093033 0.2789383 0.35600168
0.27587992 0.053345315 0.018355843 0.36088043 0.413763 0.45792162 0.32058504 0.40833497
0.31333047 0.27739123 0.17771725 0.23655972 0.2172221 -0.2837454 -0.43490183 -0.49036804
-0.42751932 -0.30373287 0.1786208 0.19510838 0.14723404 0.13944311 0.19202122 -0.27310324

conv1.bias f4 [6]
00000000: d6b7 d8bf c8ad cebf 222a 5bbf 04eb d9bf
00000010: 88dd d3be 4c4e bebf
-1.6931102 -1.6146784 -0.85611165 -1.7024846 -0.41379952 -1.4867644

conv2.weight f4 [16, 6, 5, 5]
00000000: 2579 73be dca7 f5bd d0c8 49be acde 1cbe
00000010: 3013 29be c3ef 5cbe f02a 8abd 1ffb 9ebd
00000020: 0a89 36bd 9de7 76bd 6cee 76be 88fa b5bd
00000030: 806d 00be dcfb a0bd 1631 12be 69f0 e6bd
00000040: 0fb5 15be 11ec 26be f028 6aba f0db 75bb
00000050: a293 c63c 6746 e7bd 2541 b6bd e116 14be
00000060: 000b 3cbe b7b8 04bc 9e9d 27bd 971c 2bbe
00000070: 102f b5bd 9bc5 cabb d438 37bd 40a9 84bd
00000080: 9886 f0bd b810 24be 947f 09be 6019 f8bd
00000090: 8489 b6bd 9517 72bb 1030 d3bd 0c61 833d
000000a0: 44f3 9e3a d2b4 33be 199e 6dbe d417 2abe
000000b0: 3c7d 86bd 5dab 13be 376b eebd 14e5 57be
000000c0: 07da 0ebe e193 77bd 14e5 59be af83 46be
000000d0: 675b 61be 0efa 9dbe 898f 3ebe c891 68be
000000e0: dbb5 3abe f130 59be bd6b 94be 28a5 9fbe
000000f0: 8221 73be c87e 4ebe ba46 7dbe 55db 8cbe
00000100: 3117 acbe 1cc2 aabd a804 b2bc 3294 c0bc
00000110: 3c3c 6bbd a592 51be a235 b3bd 1b9e 2bbd
00000120: 89e1 82bc 8694 7fbc c25a 34be 36a8 09be
00000130: ad7f 2ebe 8889 4ebe 005b e9bd d49e afbd
00000140: e598 4bbd 19a2 0bbe 7ba6 87be d8ed 60be
00000150: dc6b 74be a47a a6bd 72f2 04be f74e 4ebe
00000160: 8c4e 12be 0c19 86be c5c0 f6bd 8d62 9abd
00000170: 3c6f 2ebd 015e f1bd bec2 1cbe 14c4 6cbe
00000180: ea7f fabc 36f3 893b 39f0 24be b69e 71bd
00000190: 46a6 14be 3ce3 34be 1ac8 81be a903 0bbe
000001a0: 3ed0 0fbe 07d1 b7bd eb86 e1bd c8be 85bd
000001b0: 3c5e a3bd a0bb bcba c989 35be 9a81 f7bd
000001c0: d1ac 2abe 2b30 ffbd ad26 23be 07ee 53be
000001d0: e742 81bd ce5f c6bd ed1a 1d3d 0696 053c
000001e0: 2b1d 86bd ea0f 9dbd fbf0 c6bd ab73 d6bd
000001f0: 7c8f dabd 5f66 4abe d105 16bd cd82 6fbd
00000200: 0c21 25be 300d 79be 7e8a edbd c143 eabc
00000210: cc0a 10be bbac 25be 2305 a9bd 8086 483b
00000220: 42f8 a0bd ac77 5abc e279 813b 5abb c4bd
00000230: 4046 c4bd 509a c6bd f641 03be 55bf 1dbd
00000240: ddf0 2abe 879a 49be b3e5 77be 05d4 13be
00000250: 6aea 2ebe 0dd6 4abe bd70 c63c df47 2abc
00000260: 0af2 09bd 41cd c7ba baba a43b 547f f8bd
00000270: 7986 16be 5892 67bd 2956 28be a492 2ebd
00000280: 4980 fdbd dda3 4dbd 2ff4 00bd 42c1 cbbc
00000290: 90c0 4ebc cc45 8dbd 5dc1 33bd d0e9 6fbc
000002a0: 3063 27bd 20c2 62be c7dd 17be c6ea 13be
000002b0: 996b 34be 798b 74be 12ba 4dbe 948f 0cbc
000002c0: 0f2c 163d ab22 24be b469 51bc ee5d 84bc
000002d0: 8f90 5e3c d770 18bd 74d9 abbd 7824 bdbb
000002e0: b3cc 6cbd 3c08 36be 38b8 e1bb 6e47 fbbd
000002f0: ad4d 38be 1b73 cbbd 4274 39bc 5c03 17bd
00000300: 72e3 d33c 8ed9 a0bd 42ae 08be de5a 3dbd
00000310: 35ad 0abe 9c7c fbbd 8ebb 3ebe f1b1 3abe
00000320: e62c 97bd 7434 4bbe cdda 10be a995 3bbd
00000330: aa32 4abd 62bf adbd 7cf1 90bd 1ad5 76be
00000340: 61be f2bd 766c 4ebe 5bac 3cbd f6f6 1abe
00000350: d71d b9bd 1e8d 33be b2a4 fabd 2115 03be
00000360: 5464 3cbe d6d0 febd f6c4 c5bd 7109 31be
00000370: 6237 4bbe 59da 1fbe 166b d3bd aea2 c3bd
00000380: 120f c7bc ce90 90bd c9dd 3bbe dd48 11be
00000390: e2ca 3fbe d581 fdbd 728c 82bd 35e2 ebbd
000003a0: 24c3 a3bd c01d 03be bebe 01bd a6f3 8cbd
000003b0: ed4c 92bd 9927 00be e65e 2bbe 0042 f4bd
000003c0: cfd1 dfbd 06fd 3bbe d191 b9bd 185c c6bd
000003d0: 2ef7 16bc 2ebc d0bc 471c d7bd 5fa1 08be
000003e0: ccc1 8c3b 8704 b4bb 65dd e0bd 1720 983c
000003f0: f2b3 6bbd a9f0 12bd e466 43bd 50e3 98bd
-0.23776682 -0.11994907 -0.1970551 -0.15319318 -0.16511226 -0.21575837 -0.06746471 -0.07762741
-0.044564284 -0.060279477 -0.24114388 -0.08885676 -0.12541771 -0.07860538 -0.14276537 -0.11276323
-0.1461985 -0.1630099 -0.0008932492 -0.0037515126 0.024240319 -0.11292725 -0.08899144 -0.14461853
-0.18363571 -0.00810068 -0.0409218 -0.16710125 -0.08846867 -0.006188107 -0.04473193 -0.064775944
-0.11744422 -0.16022003 -0.13427573 -0.12114215 -0.08912948 -0.0036940326 -0.103119016 0.064149946
0.0012126942 -0.17549446 -0.2320484 -0.16610652 -0.06566855 -0.14420839 -0.11641543 -0.2108348
-0.13950358 -0.060443763 -0.21278793 -0.19386171 -0.22007523 -0.3085484 -0.18609442 -0.22711861
-0.18233435 -0.21210076 -0.28988448 -0.31180692 -0.23743251 -0.2016555 -0.24734011 -0.27511087
-0.33611444 -0.08337805 -0.021730736 -0.023508165 -0.05743049 -0.20466097 -0.08750464 -0.041898828
-0.015976684 -0.015599376 -0.17612746 -0.13443074 -0.17040892 -0.20169652 -0.1139431 -0.08575216
-0.04970636 -0.13636054 -0.26494202 -0.2196573 -0.2386927 -0.081288606 -0.1298311 -0.2014731
-0.14287776 -0.26190984 -0.120484866 -0.07538328 -0.04258655 -0.11785508 -0.15308663 -0.23121673
-0.030578572 0.004209901 -0.16107263 -0.05898925 -0.14516553 -0.17664808 -0.25347978 -0.13575615
-0.14044282 -0.08975416 -0.11012062 -0.06530529 -0.07976958 -0.0014399178 -0.17728342 -0.120852664
-0.16667487 -0.12460359 -0.15932722 -0.20696269 -0.06311589 -0.09686242 0.038355757 0.008153444
-0.06548532 -0.07669051 -0.09713932 -0.10471281 -0.10671899 -0.19765614 -0.03662664 -0.05847435
-0.16125888 -0.24321437 -0.11598681 -0.02859676 -0.14066619 -0.16179173 -0.08252933 0.0030597746
-0.078598514 -0.013334196 0.003951297 -0.09606047 -0.095837116 -0.096974015 -0.12818131 -0.038512547
-0.16693445 -0.19687854 -0.24208717 -0.14436348 -0.1708161 -0.19808216 0.02422368 -0.010393112
-0.033678092 -0.0015243666 0.0050271424 -0.12133661 -0.14699735 -0.05653605 -0.16439117 -0.042620316
-0.12377984 -0.0502051 -0.03148287 -0.024872426 -0.012619153 -0.06898078 -0.043885577 -0.014643148
-0.040866077 -0.22144365 -0.14830695 -0.14445028 -0.1761917 -0.2388133 -0.20090511 -0.008579154
0.03666311 -0.1602885 -0.012781549 -0.01615807 0.01358427 -0.037216987 -0.08391085 -0.0057721697
-0.057812404 -0.17776579 -0.0068884157 -0.122694835 -0.17998381 -0.09934064 -0.011319222 -0.036868438
0.02586529 -0.07853995 -0.13347724 -0.046229236 -0.13542636 -0.12279627 -0.18626234 -0.18231942
-0.073816106 -0.19844228 -0.14145966 -0.045797024 -0.049364723 -0.08483769 -0.070773095 -0.2410473
-0.11852718 -0.20158562 -0.04606281 -0.1513327 -0.090388946 -0.175343 -0.122384444 -0.12801029
-0.18397647 -0.12442176 -0.09656708 -0.17288758 -0.19845346 -0.15610637 -0.103231594 -0.09552513
-0.024299178 -0.07058869 -0.18346323 -0.14187951 -0.18729737 -0.12378279 -0.06374444 -0.11517755
-0.079962045 -0.12804317 -0.031676047 -0.0688241 -0.07143579 -0.12515105 -0.1673542 -0.11926651
-0.1092869 -0.1835824 -0.090610154 -0.09685534 -0.009214206 -0.025480356 -0.1050344 -0.13342808
0.0042955633 -0.0054937038 -0.10979728 0.01856999 -0.057544656 -0.035874043 -0.047705546 -0.074652314

conv2.bias f4 [16]
00000000: a5f4 62be cb1c 42be 7b8c cebd 5f12 073f
00000010: be32 cc3d 8ab7 acbd f21f 8fbe 77f7 6ebe
00000020: 3422 643f 028c 0f3f e86a 00bf a874 9e3f
00000030: e698 1abe 2f78 303f 992a fd3e 369c ddbd
-0.22163637 -0.18956296 -0.10085388 0.5276241 0.09970616 -0.08433445 -0.2795406 -0.23336588
0.8911469 0.5607301 -0.50163126 1.2379351 -0.15097389 0.68933386 0.49446562 -0.108208105

fc1.weight f4 [120, 400]
00000000: 268f 3dbd c691 95bd eac6 b23d 7fee 8ebc
00000010: c814 07bc e505 c3ba d52a 99bd 34b2 333c
00000020: f0de fd3d eb97 823c fb10 a9bd 3382 10be
00000030: 802f b4bd 6f59 db3c 59b8 2b3c 436b e3bd
00000040: e7a5 91bb 6a6f f53c 4088 e6bd dbd5 bdbd
00000050: a0c4 353d cbd0 9abd 842b 89bd 24cd 84bd
00000060: 5c1b 2abd cfb1 77bc df23 a6bd 46da 8fbd
00000070: 2e4b 21bd 2598 b9bd 8ca6 9a3d 1e49 b83d
00000080: d78e 403d 9071 56bd 558b c3bd 84d3 313d
00000090: fa8d 6f3d 76ec 303d a8cf 583d f007 79bc
000000a0: 48d6 f83d 3413 df3d 5ee6 c53d dd36 7a3d
000000b0: 8c75 473c 20f9 2dbe c03a 19ba 1140 333d
000000c0: e202 ca3c a495 453c ae94 ebbd ec19 d0be
000000d0: 8099 edbe e6ce 12be e7f9 83be 1de3 d7bc
000000e0: ecf8 aebd 9aa0 d8bd dc8d 87bd 9cbb 9f3c
000000f0: e4dd 153c 4728 823e 1e57 ec3e 9124 053e
00000100: 2873 b93c 06bb bfbc be9c 6abd 8431 47be
00000110: 51d4 0d3e 146f 30be 2df1 a4bd 2163 a63e
00000120: 9df1 683d e9bd b7bd c8ad 933d 480d efbe
00000130: fe39 533d 6a3f b6be 17be 97be 8321 89be
00000140: f3ad 1fbd 1537 043e 12e5 30be 3008 04be
00000150: 4057 313d da1e a63e a107 7dbd 7ec3 cbbe
00000160: 1772 c6be 8cf3 923d dc0f c83e a0b2 e4be
00000170: c818 89bd 828c 81be 28b4 febe 1331 203d
00000180: f9cf e1be e7ff b8bd 83b4 e7be 76d2 bdbe
00000190: 4a64 a1be 085c 56be bb31 1ebe d1bc 7bbd
000001a0: 3441 5bbe 51d5 1fbe 567b dcbc eccf 6a3d
000001b0: 50ce da3b e99d a3bd 57b1 083e 96e4 133e
000001c0: f34e 1b3e 94f9 b03c 1bf6 843d 9616 493e
000001d0: 8c1b 1d3e 24db ae3d 5ff3 25be 1b01 53be
000001e0: 2a26 8a3e c82b 9dbd 465e 09bf e4de 8cbc
000001f0: 2c99 1d3e 7060 053e 6b4d a4bd 66f5 76be
00000200: 793b c1be 6aa3 91bd e0a8 863d 890c 8c3d
00000210: b09c 5dbe 59e6 5cbe c1e0 b63d 8e79 1bbe
00000220: b654 f3bd 1e45 9fbe a595 8fbe 8421 6dbe
00000230: 92eb 8cbe 505e 1fbe 1ac1 28be ae60 8bbe
00000240: baa5 1a3e 104b 023e ca51 3b3d b0fc 46bd
00000250: 1c8b 87be 2d38 8fbe b2a5 713d 7981 793d
00000260: ba8e ecbc 574a 29bd aa1f dfbd 5ca7 9f3c
00000270: caed 53bc 6e0f 42bd 3862 84bd 2959 e1bd
00000280: eb38 963d 6f9a 383d f637 283e 4796 06bc
00000290: 5a64 40bc 5929 853d ee83 043d 6818 a73d
000002a0: 002a e83d 691e fa3c 62d6 aebc 295b acbd
000002b0: 0dc8 44bd 0251 6fbd 0353 d2bd 858f 28bd
000002c0: b710 98bd 8a87 cbbd cc26 45bd df1c b2bc
000002d0: fa4e 2bbd 7433 e9bd ce3e 1ebd d41c 153d
000002e0: a52f a8bd 701b 77bd 71e7 52bd 7ea3 6ebd
000002f0: 26e5 0abd 3396 42bc fa27 76bd b7bf 61bd
00000300: 39fd 53bd d285 3fbc 43c1 b3bc 6b84 a0bd
00000310: de40 b4bd edcd bdbd 56e0 33bd 5c14 41bd
00000320: a9f5 283e 713f 0c3e d4ac 28be 190d 41bf
00000330: dec0 5fbf d2d0 ab3e b9b9 8c3e ca37 a1bd
00000340: f40a 2ebf 80d5 05bf 78e2 75bd d796 743e
00000350: 2aa8 6b3e 8d89 3abe f8f4 e3be 7d7a 2d3e
00000360: 872d 453e c113 06bd 21d8 23be b105 bdbe
00000370: a0f9 bc3d 3687 cd3d 0eac b6be 9d25 05be
00000380: c27e a0be 5c41 b3be 203a 00bf 4a9f edbe
00000390: 0e56 98be 1108 b4be f8f6 5fbe 718c b2be
000003a0: 4ed5 32bf 56bd d6be fc06 b8be ad3d 3c3d
000003b0: d2e2 68bc f8f5 eabe 5044 e2be 7704 25bf
000003c0: 79c1 8abd 1b38 f0bb 8141 1dbf 4030 edbe
000003d0: da37 e6be 2988 aa3e 60ab bd3a b67c 94be
000003e0: 5146 52be 3485 fbbd e7db 1abe d86b 0abe
000003f0: 98d8 c4bd 5e1b e3bd a3ac 80bd 8407 16bc
-0.046279095 -0.07303195 0.08729346 -0.017447708 -0.008244701 -0.0014879076 -0.07478873 0.01096778
0.123960376 0.01594158 -0.08255192 -0.14112167 -0.087981224 0.026776044 0.010480964 -0.11104443
-0.004444826 0.029960353 -0.112564564 -0.09269305 0.04437697 -0.07559355 -0.06697753 -0.0648444
-0.04153 -0.0151180765 -0.081123106 -0.07024054 -0.039378338 -0.090622224 0.075512975 0.08998321
0.047011223 -0.052354395 -0.0954806 0.043414608 0.05848501 0.043194257 0.05293241 -0.015199646
0.12150246 0.108923346 0.0966308 0.061087478 0.012174021 -0.16989565 -0.0005845241 0.04376227
0.024659578 0.012059603 -0.11502968 -0.40644777 -0.46406174 -0.14336738 -0.25776598 -0.026353413
-0.08543572 -0.10577507 -0.066188544 0.019498639 0.009147141 0.25421354 0.46160215 0.1300223
0.022637919 -0.02340461 -0.057278387 -0.19452482 0.13850524 -0.17229873 -0.08053813 0.32497504
0.056871045 -0.08971769 0.072108805 -0.4668982 0.051568978 -0.35595256 -0.29637215 -0.2678338
-0.03898425 0.12911637 -0.17274883 -0.12893748 0.0432961 0.32445413 -0.061774854 -0.39797586
-0.3875892 0.07175359 0.390746 -0.4466753 -0.0669418 -0.2530251 -0.49746823 0.0391093
-0.44103983 -0.090331845 -0.45254907 -0.3707463 -0.31521827 -0.20933545 -0.15448658 -0.061459366
-0.21411592 -0.15608718 -0.02691428 0.057327196 0.0066774264 -0.07989103 0.133489 0.14442667
0.15166835 0.021603383 0.064922534 0.19637522 0.1534254 0.085378915 -0.1620612 -0.2060589
0.26982242 -0.07674366 -0.53659475 -0.017196126 0.15390462 0.13025069 -0.08022579 -0.2411705
-0.37740687 -0.07111247 0.06575179 0.068383284 -0.21641803 -0.21572246 0.08929587 -0.15183088
-0.11881392 -0.3110742 -0.28043857 -0.23157316 -0.27523476 -0.15563321 -0.16479912 -0.27222198
0.15102282 0.12723947 0.045732297 -0.048580825 -0.2647332 -0.27972546 0.05899591 0.06091449
-0.028876651 -0.04133066 -0.10894711 0.019488983 -0.012935111 -0.047377996 -0.06464046 -0.11003334
0.07335075 0.045069154 0.16427597 -0.00821454 -0.011742676 0.06502027 0.03235238 0.08158952
0.11336136 0.030532079 -0.02134246 -0.08415825 -0.048042346 -0.058426864 -0.102697395 -0.041152496
-0.07425063 -0.099379614 -0.048132703 -0.021742282 -0.041823365 -0.11386767 -0.038634114 0.036404446
-0.082122125 -0.0603289 -0.05149025 -0.058261387 -0.03390994 -0.011876631 -0.06009672 -0.055114474
-0.051755164 -0.01168962 -0.02194274 -0.07837757 -0.08801435 -0.09267793 -0.043915115 -0.047138557
0.16499962 0.13696076 -0.16472179 -0.7541061 -0.87403667 0.33557755 0.27485445 -0.07871969
-0.67985463 -0.522789 -0.06003043 0.23885666 0.23013368 -0.18216534 -0.44522834 0.16941257
0.19255649 -0.032733683 -0.16000415 -0.36918405 0.092273 0.10035555 -0.35678142 -0.1300263
-0.3134671 -0.35010803 -0.5008869 -0.4641059 -0.29753155 -0.35162404 -0.21871555 -0.34872773
-0.6985673 -0.41941327 -0.3594283 0.045957256 -0.014214234 -0.45890784 -0.44192743 -0.6445994
-0.06775183 -0.007330907 -0.61428076 -0.46325874 -0.44964486 0.33307007 0.0014470629 -0.29001397
-0.20534636 -0.12281266 -0.15122949 -0.13517702 -0.096116245 -0.11089204 -0.06282928 -0.009157065

fc1.bias f4 [120]
00000000: 5805 86be d9a9 03bf 04b4 9cbe f50d e8be
00000010: 5071 bdbe 7e35 37bf c2e6 d2be 7617 dfbe
00000020: 9d62 c7be ad94 b8be 2dc2 1cbf 4a8a 15bf
00000030: 750f cfbe 0da8 efbe 0362 c9be 5117 ecbe
00000040: 67d8 833e 4dfc 92bd e97b 3c3f 3f34 cfbe
00000050: 882c f1be d8ff 96be d6f9 86be c9a4 a7be
00000060: 0940 c73e 765b e23e cf93 dd3e cce7 0cbf
00000070: 2732 f7be f759 4cbf 96fd e9be 9d72 20bf
00000080: 06e1 91bd 0a3e c0be 3abb eebe c6b9 d1bc
00000090: bda4 46be f957 28bf 69ae d0be 8e6d df3e
000000a0: 1c05 a6bf 5541 03bf 3f8e 06bf b2e2 2bbe
000000b0: 157c 223d 507e c9be 447a 3dbd 08dd 073f
000000c0: 3a2f 05bf ea33 bcbd 5ff0 9dbe 5d81 1fbf
000000d0: d879 e0be f63c c2be 84d2 5cbe d721 a1be
000000e0: 60ef 13bf 09fd 4f3e 5203 7dbe ad43 e5be
000000f0: df2c 2a3e 380e c0be 3015 60bd 52ce 663e
00000100: 020b 54be 4b24 b4be 41e4 71be dae4 243f
00000110: 3866 ba3e ca8b febe 9471 f53e f1e3 d5be
00000120: a940 a1be 964b fabe f190 16be e23e d2be
00000130: 319e 9fbe 9b4f bf3e 3d72 29bf d652 5ebe
00000140: 60be 42be 2ed7 cabe 8025 8bbe 52d2 fabe
00000150: bf8b 01bf 35bb 03bf f8e1 95be eedb d7be
00000160: 64a9 41be d0e5 443f 3133 b3be cc18 503e
00000170: fe1b 96be 0d2a bdbe 41f5 c7be 2a2a e3be
00000180: f68f 92be 126a ebbe 5860 adbe f631 9bbd
00000190: 161e dabe 4228 0bbf 3465 1bbf 4436 293f
000001a0: 752d d4be f420 99be fc04 1abf 6bf8 cd3e
000001b0: e472 833e 6b2d 99be b9a7 a0be 0d02 b0be
000001c0: 609d df3e f380 533f 61df 99be b44e c53e
000001d0: 4c86 113f cf81 cbbe f0cf 05bf 44ae e83e
-0.26175952 -0.5143104 -0.3060609 -0.45323148 -0.37000513 -0.71566 -0.4119168 -0.43572587
-0.38942423 -0.3605093 -0.6123379 -0.5841414 -0.4044148 -0.468079 -0.3933259 -0.4611154
0.2575104 -0.07177029 0.7362657 -0.40469548 -0.47104287 -0.29492068 -0.26362485 -0.3274291
0.38916042 0.44210404 0.43276832 -0.55041194 -0.4828045 -0.79824775 -0.45701283 -0.62674886
-0.07122998 -0.37547332 -0.46627218 -0.025601279 -0.1939878 -0.65759236 -0.40758064 0.4363827
-1.2970309 -0.51271564 -0.525608 -0.16785696 0.039669115 -0.3935418 -0.04625918 0.5307164
-0.52025187 -0.09189589 -0.3084745 -0.6230677 -0.4384296 -0.37937135 -0.2156468 -0.3147113
-0.5778713 0.20311369 -0.24708298 -0.44778195 0.1661868 -0.37510848 -0.054707706 0.22539642
-0.20707324 -0.3518394 -0.23622228 0.644117 0.36406112 -0.49716026 0.47938216 -0.41775468
-0.31494644 -0.48885792 -0.14703728 -0.410636 -0.31175378 0.37365422 -0.6618994 -0.21711287
-0.19017935 -0.39617294 -0.27177048 -0.48988587 -0.5060386 -0.5145753 -0.29273963 -0.4215998
-0.18912274 0.76913166 -0.34999993 0.2032196 -0.2931823 -0.36946145 -0.390543 -0.44368106
-0.28625458 -0.45979363 -0.33862567 -0.07577889 -0.4260108 -0.54358304 -0.607013 0.6609843
-0.4144093 -0.29907954 -0.60163856 0.4022859 0.25673592 -0.29917464 -0.31377962 -0.34376565
0.43674755 0.82618636 -0.30053237 0.38536608 0.56845546 -0.39747474 -0.5227041 0.45445454

fc2.weight f4 [84, 120]
00000000: f91a 503c 6cdb 923c 1637 7ebd 0060 b337
00000010: 8102 193c 490e 4abd d623 adbd 0eba cebd
00000020: 04f9 fdbd 9691 c9bd 411c 89bc 40ae 0bbd
00000030: 1ba0 f7bd 2818 8f3d 0b2e 7cbc 45a7 bc3d
00000040: c0d4 dfbd 91e3 b3bd ac2d f3bd 5069 fe3c
00000050: 33df a0bd 9424 ca3c 9298 a9bc 1638 1e3c
00000060: 4c12 29be c204 0ebd 84f7 76bd 1110 c4bd
00000070: 02cb 093b 663f 82bd cf8b cbbc f02b cebd
00000080: ccb1 42be 0549 c9bd 28a0 1cbd 2450 a6bc
00000090: 0450 22be f0f8 14be 3475 1abd 1483 33be
000000a0: 5aae 69be 76e2 483d 6e45 8ebd 80a1 643d
000000b0: 70db 2ebb 060a d13d f002 a33d 0d08 debd
000000c0: c530 d6bc 9b9d a7bb 62c1 55bc 36b9 3ebd
000000d0: 6d24 48bc 2c19 93bd c83b 73bd e242 04bd
000000e0: d9dd 9b3c fd38 febd 24bb 01be e9be 2b3d
000000f0: d2c7 c2bd 83b7 82bd 1e18 223c f79f 1fbd
00000100: 8871 9b3b 8937 873d 6acf 16bd 0451 9ebc
00000110: 86ed 83be c298 5dbd b569 bcbb 8852 9dbd
00000120: bfa1 b1bd c122 9f3c 364b d2bd f742 acbd
00000130: a0f2 d5bc 0e4c a4bd 9184 20be aa77 1fbe
00000140: 8c2a 203c 6f16 babd bb0a 7fbd 65b9 37bd
00000150: 9699 dabd 0697 99bd c029 993a 676b 6fbd
00000160: 50ff a1bd d8fc 9cbd 0c05 e9bd dc2f 48be
00000170: b1e8 f53a 0d32 053e 085d 66bd 8d06 9fbd
00000180: db67 27be 124e b0bc 3a4c f5bd ad21 20bd
00000190: b139 923c c51f 533c 6d9d 05bd c4dc e1bd
000001a0: f8f0 aebd 84a4 6cbd 8efa 13bd 3a5e 44be
000001b0: ad17 953c b1b2 823b 2fb0 0dbd 215c 06be
000001c0: b8d6 1cbe 832e 13bd 52b3 07bd 88ea d3bd
000001d0: e3ea 36be 351b bdbc be50 83bd 9c5d a0bd
000001e0: ec50 24bd 42df 54be 6486 9fbd 2752 80bc
000001f0: e4a1 dcbd 8ed2 b1bd abba 5ebd 26ed a5bd
00000200: eb53 0fbd b194 1fbe e1dd 38bd 7b53 14bd
00000210: f47c 83be 1034 8c3c 4c4b 35be 8627 fcbd
00000220: aead ee3d 3a30 bebd 0c9b 8abe ce06 40bd
00000230: 4efe 99be 7fe3 57bd 71c9 5cba b081 cdbd
00000240: 6cb9 bfbd 7897 9a3b 62cf 5bbe 7ddc d1bd
00000250: 0540 1fbe 1c9a 28be e009 8a3b d977 c0bd
00000260: ffff 58be 15ae e6bd 06d7 b53d 855b e4bd
00000270: 9321 be3c 0b25 483d 11b5 18be bd85 fabc
00000280: 8c32 91be 1c33 76be e2e6 0dbe a9ca fc3d
00000290: 54fd 0dbe 17aa d4bd 06e6 0e3e e582 a1be
000002a0: 52e1 d2bc e420 e93d 74cc 27be 965f 07be
000002b0: d9a3 8cbc 0e27 35be c8a7 edbd cb8c e2bd
000002c0: 6f21 43bd 88f9 f8bd dbd6 91bd 8334 213d
000002d0: 9be3 86be 0832 6dbd eadd 14be 825f 12bd
000002e0: 9501 95bd f2ce 5bbd 7a62 a4bc 41f3 16be
000002f0: 72cc a3be 77d9 39bd 8d6f 8bbc 40b2 a23c
00000300: 3e26 2cbd 084c ce3d 76d1 3ebd 8cfb 95bd
00000310: 6c49 50be d538 06be 26b7 71be 10fe 08be
00000320: a711 37bd bb74 3fbe 9218 133e 972e 5fbd
00000330: 8cb9 11bd 9044 8cbd 3e31 113d c857 40be
00000340: 37a2 e8bc e803 68be 6ae7 dcbd 891d afbe
00000350: 55f3 693d 6de8 a5bd 64db 1dbe 34dd b5bd
00000360: 8886 d1bb 4010 513d 2c60 11be 602a afbd
00000370: de0f 813c 92a1 2bbe 625f d73c 0321 6dbe
00000380: 5db3 1bbd 1b68 14be 3dfa 90be c04e 85be
00000390: a8e4 56bd fa53 db3b 1c87 d9bd e879 c1bc
000003a0: f96a 8bbe c99e cebd 3345 e13c 24f9 68be
000003b0: 5f4c 8cbb 7d75 83be be17 d4bd 1f06 95be
000003c0: 7002 a2be 7095 ff3d 68c7 8f3d 518d c93d
000003d0: 5159 f4ba 37d4 83be 1425 ebbc c1df 83be
000003e0: a2e9 49be 69f4 e5bd d4ea 53bd 4336 fdbd
000003f0: 0cf0 163c c1ed 18bc d896 e9bd c1ea b63c
0.012701743 0.017926894 -0.062064253 2.1383166e-05 0.009338976 -0.04933003 -0.08454101 -0.10094081
-0.124010116 -0.098422214 -0.016737105 -0.034101725 -0.120910846 0.06987029 -0.015391837 0.09211592
-0.10929251 -0.08783639 -0.118739456 0.031056076 -0.07855072 0.024675645 -0.020702634 0.009656927
-0.16510886 -0.034672506 -0.060294643 -0.09573377 0.0021025543 -0.063597485 -0.02484694 -0.10066974
-0.19013137 -0.098283805 -0.038238674 -0.020301886 -0.15850836 -0.14548087 -0.03770943 -0.17530471
-0.22820416 0.049044095 -0.069468364 0.05581808 -0.0026681088 0.1020699 0.07959545 -0.10841379
-0.026146302 -0.0051152236 -0.013046594 -0.04656335 -0.012215716 -0.071825355 -0.059383184 -0.032290347
0.019026684 -0.124132134 -0.12669045 0.041930113 -0.09510769 -0.06382658 0.009893445 -0.038970914
0.0047437586 0.06602389 -0.0368189 -0.01932574 -0.25767154 -0.05410076 -0.005749906 -0.07681757
-0.08673429 0.019425752 -0.102682516 -0.0841121 -0.02611667 -0.08022319 -0.1567557 -0.15572992
0.009775769 -0.0908631 -0.062266093 -0.04485454 -0.106738254 -0.074995086 0.0011685416 -0.058452036
-0.07910025 -0.076654136 -0.11377916 -0.19549507 0.0018761364 0.13007374 -0.056241065 -0.07764921
-0.16348211 -0.021521602 -0.1197743 -0.039094616 0.017849775 0.012885992 -0.032620836 -0.11028436
-0.08542055 -0.05777408 -0.03612762 -0.1917657 0.018199766 0.003988587 -0.03459185 -0.13121082
-0.15316284 -0.03593303 -0.033129998 -0.10347468 -0.1786304 -0.023084262 -0.06411885 -0.078303546
-0.040116236 -0.20788291 -0.07789305 -0.015664173 -0.10773066 -0.08682738 -0.05437724 -0.08101873
-0.03499214 -0.15584065 -0.045133475 -0.036212426 -0.2568127 0.01711467 -0.17704505 -0.12312226
0.116542205 -0.09286542 -0.27071416 -0.04688149 -0.30076832 -0.05270719 -0.0008422351 -0.100345016
-0.09361538 0.0047177635 -0.21465829 -0.10247133 -0.15551765 -0.16465038 0.004212603 -0.09397859
-0.21191405 -0.11263672 0.08878903 -0.111502685 0.023209369 0.048863452 -0.14912821 -0.03058135
-0.28358877 -0.24042934 -0.13857606 0.12343342 -0.13866168 -0.103840046 0.13954934 -0.31545177
-0.025742207 0.113832265 -0.16386586 -0.13220057 -0.017167972 -0.1769068 -0.11604267 -0.110620104
-0.047639307 -0.12156969 -0.071210586 0.03935672 -0.26345524 -0.05790904 -0.14537778 -0.035735615
-0.072756924 -0.053664155 -0.020066489 -0.14741232 -0.31991917 -0.045373406 -0.017020965 0.019860387
-0.042028658 0.100730956 -0.046586476 -0.073233694 -0.20340508 -0.13107617 -0.23605022 -0.13378167
-0.04469457 -0.18696873 0.14364842 -0.05448779 -0.035577342 -0.06849015 0.03544735 -0.18783486
-0.028397663 -0.2265774 -0.10786326 -0.3420222 0.057116825 -0.08100972 -0.15415722 -0.08880082
-0.006394211 0.051040888 -0.14196843 -0.08553004 0.015754636 -0.16760853 0.0262906 -0.23157124
-0.03801285 -0.14492838 -0.28315917 -0.26036644 -0.052464157 0.0066933604 -0.10621473 -0.0236177
-0.2723005 -0.100888796 0.027498817 -0.2275129 -0.004281565 -0.25675574 -0.10356091 -0.29106233
-0.31642485 0.12479675 0.070204556 0.09841407 -0.0018642341 -0.25747845 -0.028704204 -0.25756648
-0.1971803 -0.11228258 -0.05173762 -0.12363865 0.009212505 -0.009334029 -0.11405724 0.022328736

fc2.bias f4 [84]
00000000: ad3c 92be 1625 a0be 8ba3 e93e 1a86 d4be
00000010: 6f95 fdbe 5403 4c3f 1055 73be 64a5 0abd
00000020: 09bb 8cbe ca60 c7be b72e 8cbe a2ba a1be
00000030: 4478 adbe 28e6 7cbe 7f37 12be a1ba 90be
00000040: 8c36 03be 9f6f ddbe 7645 c8be 5794 b2be
00000050: b239 f1bd efdc c4be 37ea 48be 0986 c6be
00000060: 44c7 28be a6ba 7d3d f4d5 0abe bb5c 2abe
00000070: 76f1 96be 319d a73f 2c4f adbe 3eac 81bd
00000080: 0d43 cdbe bfaa 48be 12c7 f6be fe96 75be
00000090: 23b4 66be a8d9 6abe f622 95be 064a 97be
000000a0: ac25 cfbe 8091 56be ecb1 adbe d0ab 533e
000000b0: 06f0 ac3e 961a 55be 51f9 61be 08c7 a3be
000000c0: 891b babd 188c 1dbe 5b0b 8abe c0e9 bfbe
000000d0: bd73 913e b6aa 9dbe 9c37 2a3d 1a5b f9be
000000e0: 4298 b8be 586c 8ebe a6d5 123f 70fd a1be
000000f0: 69ce a5be 9497 03be d2ec 1ebe 2760 7ebe
00000100: c36e 44be 45a8 08be 94d6 97bd dc7f dcbe
00000110: 62d0 abbe 9114 bfbe 90e3 cdbe 0b0b aebe
00000120: 9f2b 9cbd 9059 943f ee3c 9abe 5088 4fbb
00000130: b1ab b7be 8396 9cbe 5974 cebe 9b9d 95be
00000140: f490 5bbe 6706 52be 29b3 acbe 05a4 04be
-0.28561917 -0.31278294 0.45632586 -0.4150856 -0.4952807 0.7969258 -0.23762918 -0.033849135
-0.27486446 -0.38941032 -0.2737939 -0.31587702 -0.33880818 -0.24697173 -0.14278983 -0.28267387
-0.12813777 -0.43249223 -0.39115494 -0.348788 -0.11778583 -0.3844981 -0.19620596 -0.38774136
-0.16482264 0.06194558 -0.13558179 -0.16636936 -0.29481095 1.3094846 -0.33849466 -0.06331681
-0.40090218 -0.19596384 -0.48198754 -0.2398338 -0.22529654 -0.22934592 -0.29128236 -0.29548663
-0.4045843 -0.20953941 -0.33924806 0.2067101 0.33776873 -0.20810923 -0.22067763 -0.31987786
-0.09087283 -0.15385473 -0.2696179 -0.37483025 0.28408614 -0.30794305 0.04155694 -0.48702317
-0.36053663 -0.27817035 0.5735725 -0.3163867 -0.3238404 -0.12850791 -0.15520027 -0.24841367
-0.19182877 -0.1334544 -0.074139744 -0.430663 -0.3355742 -0.37320378 -0.4021268 -0.339928
-0.076255076 1.1589832 -0.3012461 -0.0031666942 -0.35873178 -0.3058358 -0.4032314 -0.29221806
-0.21442014 -0.20510255 -0.33730438 -0.12953193

fc3.weight f4 [10, 84]
00000000: e5e2 8dbe 5f31 dabe 1ed3 61bf 53c5 29bf
00000010: 5ef1 5cbe 568e a43e 7e98 7cbe 6ceb c4bb
00000020: 925b 8cbe a160 8ebd 6765 f7bd c6b0 39be
00000030: 4bcc 7dbe 8d8e ddbe c416 c2be de15 fdbe
00000040: a13b 13be 5682 a6be 0056 4dbe 6853 f2be
00000050: 528d 51be e06b 3dbf 27fa 98be a060 b6be
00000060: 28dd 12bf d73f 49bf bbb0 0abe 2ff7 2bbe
00000070: e06c cbbc e0f8 16bd bccf 66be 3d56 58be
00000080: bf82 adbe c4e3 80be f21c 33be 3dab 00be
00000090: 8f11 ffbe b817 1dbe f490 6cbe 4627 43be
000000a0: 714b 88be 7294 5ebe bff1 3bbe 8d01 613e
000000b0: 2872 823d e0f8 92be ef0e aebe 10a0 15be
000000c0: 3e4c afbe 819d 32ba d8e4 3ebe cf03 b3be
000000d0: b9e3 37bf 0fff 7fbe 20d6 b2be be4d 45be
000000e0: c667 f2bd eb38 b7be 53f9 123d a376 a6be
000000f0: 286c b0bc ed33 abbd c672 9cbb bfcc 5dbe
00000100: 49fa d4be c543 81bd 30bc 0ebf a9df e6be
00000110: 3f76 a4bd 3245 d6be 9d59 d5be 4485 c7ba
00000120: 6847 14bf 27c5 893d fa27 bfbe 2f42 edbe
00000130: 409b 51be dda8 96be a92f efbe 26ca 9cbe
00000140: 1e8d 44be 0b76 ac3c 160b d1be e286 ccbd
00000150: 447f aabe e626 c4be d5c7 02bf ca6f febe
00000160: d523 47be 8571 3abe 8734 d1bd 633d babd
00000170: a17a 9cbd 5af0 96be cc96 48be 72db 72be
00000180: ae02 53be 5740 8ebe c5b3 a7be b69a 94be
00000190: f81e 6ebe a872 7fbf 06ec b5be c624 32bf
000001a0: 90bc 23be c99e 07bf c9b4 2abe b4f6 9dbe
000001b0: ee77 81bf bc64 04bf ea18 94be 48b9 d9bd
000001c0: 2a32 48be b7fe df3e 8e46 78be 5c26 c3be
000001d0: 417e fdbe a65f 03bf 3128 2d3c 87fc debd
000001e0: e056 79bf 67d8 d3be 675d 1fbe 95c8 49bd
000001f0: b957 8abe d6fd 93be 80a6 a5be b0d7 77bb
00000200: a571 9dbe 5e1b 10be e389 59be d5e8 67be
00000210: 6002 a8be 0ca4 26be 523e d0be 2a60 88be
00000220: 249e 18bf b7e1 c2be 6322 8dbf cc37 8bbe
00000230: 248b 8bbe 6651 7ebe c6e1 153e f4cc a6be
00000240: 2cc2 e0bd eddc 77be 2039 66be bfc5 9ebe
00000250: bafa eebe 6538 08be 2ade 9dbe ae13 88be
00000260: 9213 6abd 61ea 1cbe b048 e8be 6153 84be
00000270: 4945 aabe 1ccb 9f3d aef4 d1be e215 c4be
00000280: 5a8e 51be f721 5bbe b64a 88be 3488 19be
00000290: b1d6 83be 0f20 0abf 4aac 14bf 9a37 cf3c
000002a0: 8bc9 57be 4eda 0fbf 9290 45bf 9c73 8cbe
000002b0: 3d49 90be 3094 f6bc 6923 97be 555d 88bd
000002c0: 5d6c a4be b603 7ebe 7223 c9bd df1e b0bd
000002d0: 6cda e6bd c8fb d2be 0271 33bd 21e0 4cbe
000002e0: 1308 a3bd 78f6 c6be 196b 25be bd13 96be
000002f0: 487d 25be 2cbc 5cbf 0a82 14be 6f64 00bf
00000300: 7d4f 99bd aa54 19bf d740 b4bd f28f 90bd
00000310: 0465 16be 565a febe 82b8 7ebe 611c 4abe
00000320: 1909 0cbe ee1c 85bd 28da 81be ce70 17be
00000330: e15c 88be ae90 93be 6410 9cbe e2e5 fcbd
00000340: 3498 95be 649a d3be 5348 42be f2c0 3ebe
00000350: 9859 6cbb dc5a cabe 0f63 9abe b0d7 67be
00000360: 3a39 58be a4b0 96bd ef96 9cbe e29c b2be
00000370: 0633 493b cec7 29be c260 74be fe04 d3be
00000380: 247b 8bbe 61ab 21be a34d 3dbe e871 74be
00000390: 4db9 87bd fab8 093d bd1e 8ebd 4c20 2bbe
000003a0: d8a2 91be 8063 17be 907b 49bf 0ec9 1dbf
000003b0: 7b19 38be bbf2 b9be 2138 4abe a36f f6bc
000003c0: 3390 15bf d3c1 a2be 3060 98be 5007 90be
000003d0: 3061 67be 42dd 84be 9640 f8be ac1d 65be
000003e0: 6087 32be 3f41 703e bcf8 1abf 3cec 09be
000003f0: 46f9 60be 2909 85be 57bb 17bf 229c f2be
-0.2771217 -0.42615792 -0.88212764 -0.6631672 -0.2157645 0.32139844 -0.24667546 -0.00600951
-0.27413613 -0.06952024 -0.12079888 -0.1813384 -0.24784963 -0.4327282 -0.37907994 -0.49430746
-0.14378215 -0.32521313 -0.20052338 -0.4732926 -0.20464066 -0.7399273 -0.2987835 -0.35620594
-0.5736871 -0.78613037 -0.1354398 -0.16793512 -0.02483219 -0.03685844 -0.22540182 -0.21126647
-0.33888814 -0.2517377 -0.1749151 -0.12565322 -0.49818084 -0.15341079 -0.2310217 -0.1905795
-0.26620057 -0.21736315 -0.18353938 0.21973248 0.0636943 -0.28705502 -0.33995768 -0.1461184
-0.34237856 -0.0006813631 -0.18641984 -0.34963843 -0.7183185 -0.24999641 -0.3492899 -0.19267938
-0.118361995 -0.35785612 0.035882305 -0.32512388 -0.021535948 -0.083595134 -0.0047744242 -0.21660136
-0.41597202 -0.06311754 -0.557559 -0.45092514 -0.08030366 -0.41849667 -0.41669932 -0.0015222211
-0.5792146 0.06727057 -0.37335187 -0.46339557 -0.2046938 -0.29425707 -0.4671605 -0.30622977
-0.19194457 0.021052381 -0.4082877 -0.09986664 -0.3330022 -0.38310927 -0.5108617 -0.49694663
-0.19447263 -0.18207367 -0.10215097 -0.0909374 -0.07640577 -0.2948025 -0.19588774 -0.23716524
-0.20606491 -0.27783462 -0.3275434 -0.29024285 -0.23254001 -0.99784327 -0.35531634 -0.6958736
-0.159899 -0.5297666 -0.16670527 -0.30852282 -1.0114725 -0.5171621 -0.28925258 -0.10631043
-0.19550386 0.4374902 -0.24245664 -0.38115203 -0.49510387 -0.5131782 0.010568664 -0.108880095
-0.97398186 -0.4137604 -0.15562974 -0.049263556 -0.27020052 -0.289046 -0.32353592 -0.0037817769
-0.30750766 -0.1407294 -0.21244006 -0.22647412 -0.32814312 -0.16273516 -0.40672547 -0.26635867
-0.59616303 -0.38062832 -1.1026119 -0.27191007 -0.27254593 -0.24835739 0.14636907 -0.32578242
-0.10974535 -0.2420537 -0.22482729 -0.31010243 -0.46675664 -0.13302763 -0.3083356 -0.26577514
-0.05714757 -0.15323783 -0.45367956 -0.25844863 -0.33255985 0.07802412 -0.41006988 -0.38297945
-0.20464459 -0.21399675 -0.266195 -0.14993364 -0.25749734 -0.5395517 -0.5807539 0.025295068
-0.21072976 -0.5619248 -0.7717372 -0.27431953 -0.28180876 -0.030099958 -0.29519203 -0.06658427
-0.32113925 -0.24806103 -0.09821214 -0.08599638 -0.112721294 -0.4120772 -0.043808945 -0.20007373
-0.079605244 -0.38859916 -0.16154136 -0.29311934 -0.16161072 -0.8622463 -0.14502731 -0.5015325
-0.07485864 -0.5989481 -0.0880143 -0.070587054 -0.14686972 -0.49678296 -0.24875072 -0.19737388
-0.13675345 -0.064996585 -0.25361753 -0.14789125 -0.2663336 -0.2882132 -0.30481255 -0.12348534
-0.29217684 -0.41328728 -0.18972902 -0.1862829 -0.0036064144 -0.39522445 -0.301537 -0.22640872
-0.2111558 -0.0735791 -0.30583903 -0.34885317 0.0030700578 -0.16580126 -0.23865035 -0.41214746
-0.27242386 -0.15788032 -0.18486647 -0.23871577 -0.0662714 0.033623673 -0.069394566 -0.16711539
-0.28444552 -0.1478405 -0.78704166 -0.6163491 -0.1797847 -0.36318 -0.19747974 -0.03008253
-0.58423156 -0.317885 -0.29760885 -0.2813058 -0.22595668 -0.25950056 -0.48486775 -0.223746
-0.17434454 0.2346239 -0.6053579 -0.13469023 -0.2197009 -0.2598355 -0.5927023 -0.47384745

fc3.bias f4 [10]
00000000: 5f8a 0cbe cecd 983e ed79 a0be 2809 da3b
00000010: adef febe 706d 86bd 5abe 84be 7f0a 2cbe
00000020: ba6a bbbd ffc9 483f
-0.1372466 0.29844517 -0.31343022 0.0066539235 -0.49792233 -0.06563842 -0.25926477 -0.16800879
-0.09151216 0.7843322
