fedprox_model.pt (torch, 251877 bytes, 10 tensors)

conv1.weight f4 [6, 3, 5, 5]
0	0x3e76aa78	0.24088466
1	0x3e6ab47a	0.22920409
2	0x3ee08c7a	0.43857175
3	0x3eef5972	0.4674793
4	0x3ec84635	0.39116064
5	0x3e827760	0.254817
6	0x3e507230	0.20356059
7	0x3e8ea871	0.27862886
8	0x3eb7b765	0.35882106
9	0x3e418330	0.188977
10	0x3e91e0a6	0.28491706
11	0x3ecaff01	0.39647678
12	0x3e2b2e57	0.16716896
13	0xbd97fbbe	-0.07421063
14	0xbe651042	-0.22369483
15	0x3db385de	0.087657675
16	0x3e781fae	0.24230835
17	0x3e2c4c1c	0.16825908
18	0xbcfad620	-0.03061968
19	0xbe97280b	-0.29522738
20	0x3cf2432f	0.029573051
21	0x3cc24eb7	0.023719175
22	0xbbbc6466	-0.005749273
23	0xbe3242f4	-0.17408353
24	0xbe6af6a4	-0.22945648
25	0xbec6f4e8	-0.38858724
26	0xbf04148e	-0.51593864
27	0xbec148f7	-0.3775098
28	0xbe547baa	-0.20750299
29	0xbe90e8c3	-0.28302583
30	0x3d31c91a	0.043404676
31	0xbe5be2da	-0.21473256
32	0xbd8a9aab	-0.06767782
33	0xbebb4e49	-0.36583164
34	0xbed8e1b8	-0.4235971
35	0x3ce0e968	0.027455047
36	0x3df8307f	0.12118625
37	0xbe2a7142	-0.16644767
38	0xbec501d8	-0.3847797
39	0xbf0a7568	-0.540854
40	0x3e00446e	0.12526104
41	0x3e852c12	0.26010185
42	0xbcdc064a	-0.026858468
43	0xbeece598	-0.46268916
44	0xbf0767e0	-0.52892876
45	0x3d28bf1b	0.041197877
46	0x3d5a3598	0.053273767
47	0xbd6ef6ea	-0.058340944
48	0xbe627481	-0.22114755
49	0xbdec4dd2	-0.115382805
50	0xbe15ef20	-0.14642
51	0xbdab4a98	-0.08363837
52	0xbd27518f	-0.040849265
53	0x3d858b0a	0.0652066
54	0xbe2bf6d3	-0.16793375
55	0x3e0118fb	0.12607186
56	0x3e305759	0.1722082
57	0x3d09e2c9	0.033663545
58	0xbe6fcb87	-0.23417483
59	0xbeb20326	-0.34768027
60	0x3ec33ab4	0.38130724
61	0x3e3f2908	0.18667996
62	0x3da705c0	0.081553936
63	0xbec07e45	-0.37596336
64	0xbef3526b	-0.47523817
65	0x3e9c78b3	0.30560836
66	0x3ec823a9	0.39089707
67	0x3dd61742	0.10453655
68	0xbe63f856	-0.22262701
69	0xbee3d4f4	-0.44498408
70	0x3ea1f313	0.31630763
71	0x3edd96cb	0.43279108
72	0x3e25e3ca	0.16200176
73	0xbda254a2	-0.07926299
74	0xbe2fed8b	-0.17180459
75	0x3eaa31c6	0.332411
76	0x3ecfd478	0.40591788
77	0x3ef7c0f2	0.48389393
78	0x3f10bab6	0.565349
79	0x3f10bcee	0.56538284
80	0x3e9347ea	0.28765804
81	0x3ea08b41	0.31356242
82	0x3edd9ffa	0.43286115
83	0x3f27e6e1	0.6558667
84	0x3f2095ce	0.62728584
85	0x3d3ee767	0.0466074
86	0x3d150419	0.03638086
87	0x3e22f068	0.1591202
88	0x3ec51078	0.38489127
89	0x3e637a67	0.22214662
90	0xbe8e2514	-0.27762663
91	0xbe73933b	-0.23786633
92	0xbe3ea09c	-0.18615955
93	0x3d4821c8	0.04886034
94	0x3d2b188b	0.041771453
95	0xbeed905e	-0.46399206
96	0xbead213c	-0.33814418
97	0xbec3cfa2	-0.3824435
98	0xbe0f685f	-0.14004658
99	0xbe89fdb4	-0.26951373
100	0xbe7a4315	-0.24439652
101	0xbe431364	-0.19050366
102	0xbe91da96	-0.2848708
103	0xbeb5daa8	-0.35518384
104	0xbe65fc38	-0.22459495
105	0xbe25986f	-0.1617143
106	0xbe8a8d1f	-0.27060792
107	0xbea4c2d3	-0.3217989
108	0xbe33e5c8	-0.17568123
109	0xbe8a16eb	-0.2697061
110	0xbd5ffa99	-0.054682348
111	0xbd6c6c44	-0.057720438
112	0xbe2bfa9b	-0.16794817
113	0xbe512805	-0.20425422
114	0xbcb8ecb2	-0.022573803
115	0x3ce6a212	0.028153453
116	0xbc47248f	-0.012154712
117	0xbdc77e13	-0.097408436
118	0xbe02d22f	-0.12775491
119	0xbe104074	-0.14087087
120	0xbe04ee81	-0.12981607
121	0xbd89ad7e	-0.06722544
122	0xbe5ac6fc	-0.21364969
123	0xbe098ff8	-0.13433826
124	0xbe448394	-0.19190818
125	0xbe23fe44	-0.16014963
126	0xbec6e7aa	-0.3884862
127	0xbed7c826	-0.4214489
128	0xbefd521a	-0.494767
129	0xbf0a6886	-0.5406574
130	0xbe86d892	-0.26337105
131	0xbe967878	-0.29388785
132	0xbec8add8	-0.39195132
133	0xbf271c4c	-0.6527755
134	0xbf040fe6	-0.5158676
135	0x3dc7ffdd	0.09765599
136	0x3dcf9076	0.101349756
137	0xbd046a31	-0.032327835
138	0xbe25c75f	-0.16189335
139	0xbe6eef22	-0.2333341
140	0x3ebcdc9b	0.3688706
141	0x3ea25ee8	0.31713033
142	0x3e8e90af	0.2784476
143	0x3e3e4c83	0.18583874
144	0x3e1d1afd	0.15342326
145	0x3ee92525	0.45536152
146	0x3f04299c	0.5162599
147	0x3ea09336	0.31362313
148	0x3e576337	0.21033941
149	0x3e3354a2	0.17512754
150	0xbe985b71	-0.29757264
151	0xbf00dcba	-0.503368
152	0xbf237003	-0.6384279
153	0xbf1c91f4	-0.61160207
154	0xbec44c18	-0.38339305
155	0xbe72d1db	-0.23712866
156	0xbe863165	-0.2620956
157	0xbdacbea4	-0.08434799
158	0xbe6f033a	-0.23341075
159	0xbe2b4d14	-0.16728622
160	0x3eba105c	0.36340606
161	0x3ef095e0	0.46989346
162	0x3f2b5ff1	0.6694327
163	0x3ef5441f	0.47903535
164	0x3edd040d	0.43167153
165	0x3ebcc5f7	0.36869785
166	0x3e243c5d	0.16038652
167	0x3e8dfa99	0.27730253
168	0x3e58ac06	0.21159372
169	0x3e3a48ce	0.18191835
170	0xbc9d9d29	-0.019239979
171	0xbdaabccd	-0.08336792
172	0xbd2eed70	-0.042706907
173	0x3da15c01	0.078788765
174	0xbd4d67c9	-0.050147805
175	0xbdb71ccb	-0.08941039
176	0xbe73f643	-0.2382441
177	0xbeeebdce	-0.46629184
178	0xbeba0469	-0.3633149
179	0xbe4bab1b	-0.1988949
180	0xbe2b7c5f	-0.16746663
181	0xbce5b1a2	-0.028038803
182	0xbcd6adf8	-0.026206002
183	0xbe3eedc4	-0.18645388
184	0xbe0f4336	-0.13990483
185	0x3eaefdf4	0.34178126
186	0x3ecd73a0	0.40127277
187	0x3f102ff0	0.56323147
188	0x3efef5a5	0.49796787
189	0x3e09f3f0	0.13471961
190	0xbcbce1f2	-0.023056958
191	0xbd29d508	-0.041462928
192	0xbc900732	-0.017581556
193	0xbe250100	-0.16113663
194	0xbe43e6f9	-0.19131078
195	0xbed0e5c8	-0.4080031
196	0xbf2a2d9a	-0.6647583
197	0xbf1bd65f	-0.6087398
198	0xbee8da8c	-0.45479238
199	0xbea79d8f	-0.32737395
200	0x3e5bc323	0.21461158
201	0xbd45ee66	-0.048323058
202	0xbe80456b	-0.25052962
203	0xbd93a324	-0.07208851
204	0xbda5a27e	-0.080876336
205	0x3ebf3cdd	0.37351122
206	0x3e128491	0.14308383
207	0xbd000ad6	-0.031260334
208	0x3d3f81d4	0.046754673
209	0xbe37ba0e	-0.17942068
210	0x3f028b48	0.50993776
211	0x3f23d8cd	0.64002687
212	0x3f1e8b31	0.6193114
213	0x3f012482	0.5044633
214	0x3e7c90e6	0.2466465
215	0x3e2b41a7	0.16724263
216	0x3db7f62b	0.089825
217	0x3dce58c6	0.10075526
218	0xbdcb1542	-0.09916164
219	0xbd3788e2	-0.044808276
220	0xbe279e39	-0.16368951
221	0xbe2dd204	-0.16974646
222	0xbe76fbac	-0.24119443
223	0xbe1dfd95	-0.15428765
224	0xbe409752	-0.18807724
225	0xbd41a389	-0.0472751
226	0x3cd566fa	0.02605008
227	0x3b0ffffc	0.0021972647
228	0x3e22593a	0.1585435
229	0x3db4e6e4	0.088331014
230	0x3dfd3d4e	0.123652086
231	0xbc870f9c	-0.016486935
232	0xbe0a305e	-0.13495013
233	0x3df3185d	0.11869881
234	0x3dc205d6	0.09473769
235	0xbdad3bd2	-0.084586754
236	0xbdd836d3	-0.10557332
237	0x3d19b4ae	0.037525825
238	0x3d0ea6a4	0.03482689
239	0xbcc019b8	-0.023449764
240	0xbc2d2b67	-0.01056943
241	0xbdafbc18	-0.08580798
242	0xbd665bd7	-0.05623993
243	0xbd3a80f0	-0.04553312
244	0xbd2a4909	-0.041573558
245	0xbdd51678	-0.10404676
246	0xbcdccf9b	-0.026954463
247	0xbd807064	-0.06271437
248	0x3dee1da7	0.116267495
249	0x3cb78c38	0.022405729
250	0xbde48582	-0.11158277
251	0xbe65e7c0	-0.22451687
252	0xbe7cfa36	-0.24704823
253	0xbd9b44a2	-0.0758145
254	0xbd99b16c	-0.07504544
255	0xbd7ebb2a	-0.062190212

conv1.bias f4 [6]
0	0xbf987420	-1.1910439
1	0xbfee3c10	-1.861208
2	0xbfb382a4	-1.4024243
3	0xbffc6fbd	-1.97216
4	0xbf6163a2	-0.8804265
5	0xbf55bc9f	-0.8349094

conv2.weight f4 [16, 6, 5, 5]
0	0xbf5e0f60	-0.8674221
1	0xbf94e739	-1.1633064
2	0xbf7a0f6b	-0.97679776
3	0xbf759b22	-0.9593984
4	0xbf56ac9b	-0.83857125
5	0xbf1d51bf	-0.6145286
6	0xbf7cbb27	-0.9872307
7	0xbf31c70c	-0.69444346
8	0xbf5fa330	-0.8735838
9	0xbf563214	-0.83670163
10	0xbf17c0dd	-0.5927866
11	0xbf6e0534	-0.9297669
12	0xbf0ec4b7	-0.55768913
13	0xbedc3d93	-0.43015727
14	0xbec8a48d	-0.39188042
15	0xbed4b570	-0.41544676
16	0xbf2864f8	-0.65779066
17	0xbe935ebb	-0.2878321
18	0xbf19e900	-0.60121155
19	0x3cc6ae46	0.024253022
20	0xbef7b1b9	-0.4837778
21	0xbf368646	-0.71298635
22	0xbe8789a8	-0.2647221
23	0xbd4cd813	-0.050010752
24	0x3e87b1d7	0.2650287
25	0xbe8f2e9b	-0.27965245
26	0xbecd9f05	-0.40160385
27	0xbecf5773	-0.40496406
28	0xbeb81d7d	-0.35959998
29	0xbe8e26a3	-0.27763852
30	0xbf00fe5d	-0.5038813
31	0xbec32700	-0.38115692
32	0xbd512644	-0.051061884
33	0x3b316ce0	0.0027072951
34	0xbed515b0	-0.4161811
35	0xbee895c6	-0.45426768
36	0xbef41e7c	-0.47679508
37	0xbd8dbd88	-0.06920916
38	0x3e768824	0.24075371
39	0xbe56bd2a	-0.20970598
40	0xbeb4c52e	-0.35306686
41	0xbeba8882	-0.36432272
42	0xbd193cb6	-0.037411414
43	0xbe0c97e2	-0.13729814
44	0xbefba972	-0.49152714
45	0xbf3b44db	-0.7315194
46	0xbe91ca80	-0.28474808
47	0x3e9abbd7	0.30221435
48	0xbdffbf12	-0.12487616
49	0xbe8ed627	-0.2789776
50	0xbf463a1d	-0.77432424
51	0xbf3187c6	-0.693478
52	0xbf6abe5e	-0.9169673
53	0xbf68a913	-0.90882987
54	0xbf795cb6	-0.9740709
55	0xbf35458c	-0.70809245
56	0xbf15287d	-0.58264905
57	0xbf198f66	-0.59984434
58	0xbf00ca10	-0.5030832
59	0xbe8ac80f	-0.27105758
60	0xbe3d0933	-0.1846054
61	0xbe40ed2a	-0.18840471
62	0xbdebd19a	-0.11514588
63	0xbf10904a	-0.5647017
64	0xbf3bc559	-0.73348004
65	0x3cf10b64	0.029424377
66	0xbd72e57d	-0.05930089
67	0xbe7715bc	-0.24129385
68	0xbf1671df	-0.58767503
69	0xbbbbffbc	-0.005737273
70	0xbe0a1abe	-0.13486764
71	0x3e39d2b3	0.18146782
72	0x3ec5173d	0.38494292
73	0x3ec7c002	0.39013678
74	0x3f302ee5	0.68821555
75	0x3e8fbee4	0.28075325
76	0x3e0362e6	0.12830696
77	0x3e9d0db7	0.30674526
78	0xbb20234a	-0.0024435096
79	0x3d962a64	0.07332304
80	0x3d3c5103	0.045975696
81	0x3e5b8238	0.21436393
82	0x3e88710d	0.2664875
83	0xbbf7e4ee	-0.0075651323
84	0xbca45c13	-0.020063436
85	0xbd8c50bb	-0.068513356
86	0x3e38e58b	0.18056314
87	0x3dd88f43	0.105742
88	0xbd04e81a	-0.03244791
89	0xbdd90a5a	-0.105976775
90	0xbe5e02dc	-0.21680778
91	0xbe74d46c	-0.23909158
92	0x3e2356db	0.15951101
93	0xbd4c6b89	-0.04990724
94	0xbd8a2084	-0.06744483
95	0xbd257413	-0.0403939
96	0xbe5fdaf0	-0.21860862
97	0xbdb79fa8	-0.08965999
98	0xbe8050fe	-0.25061792
99	0xbe948873	-0.29010352
100	0xbf33038b	-0.6992728
101	0xbe9a791b	-0.3017052
102	0xbea7eff1	-0.32800248
103	0xbed9c28a	-0.42531234
104	0xbecb7732	-0.39739376
105	0xbf1b68d5	-0.60706836
106	0xbea61af6	-0.32442445
107	0xbe6e51a5	-0.23273332
108	0x3d25bbff	0.04046249
109	0xbf19a46e	-0.60016525
110	0xbf521fe5	-0.8207992
111	0xbe5d225c	-0.21595138
112	0xbf0f8d77	-0.56075233
113	0x3d3f07a2	0.04663814
114	0xbee41562	-0.44547564
115	0xbf1f52db	-0.622358
116	0xbe5914c7	-0.21199332
117	0xbd861376	-0.06546681
118	0x3c484bfe	0.012225149
119	0xbcf35681	-0.029704334
120	0xbecaebad	-0.3963293
121	0xbdc65e51	-0.09685958
122	0xbf066f76	-0.52513826
123	0x3b1194f8	0.0022214036
124	0x3e129413	0.14314298
125	0xbe847375	-0.25869337
126	0xbe1bb130	-0.1520431
127	0xbe07a0e6	-0.13244972
128	0xbdcdf909	-0.10057265
129	0x3bb88104	0.0056306142
130	0xbeb421c5	-0.35182014
131	0xbd807fd0	-0.06274378
132	0xbe1f6153	-0.1556447
133	0xbe09fdb0	-0.1347568
134	0xbdd15cb5	-0.102227606
135	0xbf00f2d3	-0.5037052
136	0xbe35213f	-0.17688464
137	0xbe0bcb83	-0.13651852
138	0xbeacbf2c	-0.33739603
139	0xbe845f05	-0.25853744
140	0xb91c6600	-0.00014915317
141	0xbc56e228	-0.013115443
142	0xbe79788d	-0.24362393
143	0xbed075c8	-0.4071486
144	0xbdbf8e5a	-0.09353323
145	0xbe6e65d8	-0.23281038
146	0xbe8eead2	-0.2791353
147	0xbe907042	-0.28210646
148	0x3e88af0a	0.26696044
149	0x3efdc358	0.49563098
150	0xbf3069ed	-0.6891163
151	0xbe95a5f9	-0.2922819
152	0xbf00c792	-0.5030452
153	0xbeb40780	-0.35161972
154	0xbf2ef320	-0.6833973
155	0xbf73ae0b	-0.95187443
156	0xbf29ac69	-0.662787
157	0xbf13f9ee	-0.5780324
158	0xbeec7c02	-0.4618836
159	0xbf0007f8	-0.5001216
160	0xbf82d74c	-1.0221953
161	0xbf145b29	-0.579516
162	0xbeec6b10	-0.46175432
163	0xbe9ecfa8	-0.31017804
164	0xbf0a965d	-0.54135686
165	0xbf4a9470	-0.7913275
166	0xbf3959c1	-0.7240258
167	0xbe33fd65	-0.17577131
168	0xbea1e12d	-0.31617108
169	0xbea92923	-0.33039197
170	0xbf015453	-0.50519294
171	0xbf085d07	-0.5326695
172	0xbe467795	-0.19381554
173	0xbe8f2e32	-0.27964932
174	0xbe095cae	-0.1341426
175	0x3e0fb23a	0.14032832
176	0xbdbceaaf	-0.0922445
177	0xbe46d632	-0.19417647
178	0xbdf31445	-0.118691005
179	0x3dc5e6f2	0.0966319
180	0xbe1ca366	-0.15296707
181	0xbe95565c	-0.2916745
182	0xbf3885b6	-0.72079027
183	0xbf3e0593	-0.74227256
184	0xbe866851	-0.26251462
185	0x3d376f84	0.044784084
186	0x3cdab21d	0.02669626
187	0xbdc41dd0	-0.09575999
188	0xbe82b621	-0.25529578
189	0xbe647817	-0.22311436
190	0xbdc2af46	-0.09506087
191	0xbec43158	-0.38318896
192	0xbe2e1bc9	-0.17002787
193	0xbf13b70f	-0.577012
194	0xbe03db95	-0.12876733
195	0x3e94fd6f	0.29099604
196	0x3e7231a0	0.23651743
197	0x3e686aac	0.22696942
198	0xbe294f58	-0.16534173
199	0xbe6497f9	-0.22323598
200	0xbf368512	-0.712968
201	0xbed2c3f9	-0.4116514
202	0xbeb5e94c	-0.35529554
203	0xbe64ad76	-0.22331795
204	0xbf5b337c	-0.85625434
205	0xbf432334	-0.7622559
206	0xbef405fb	-0.47660813
207	0xbeab83db	-0.33499035
208	0xbf07dd05	-0.53071624
209	0xbed27cab	-0.4111074
210	0xbf08355d	-0.53206426
211	0xbf5c2587	-0.8599476
212	0xbf1fba80	-0.6239395
213	0xbeb7c828	-0.35894895
214	0xbea50c58	-0.3223598
215	0xbe650808	-0.22366345
216	0xbf225150	-0.63405323
217	0xbec44ce6	-0.3833992
218	0xbddcfa53	-0.10789933
219	0xbcc9ed05	-0.024649153
220	0x3ea5404f	0.32275626
221	0xbe286268	-0.16443789
222	0xbe55c7f6	-0.2087706
223	0xbec769bb	-0.38947853
224	0xbee4885d	-0.44635287
225	0xbce0b5e3	-0.02743048
226	0x3ca64906	0.020298492
227	0xbe9365a6	-0.2878849
228	0xbe0a076a	-0.1347939
229	0xbe8522dc	-0.26003158
230	0x3e532b7c	0.20622057
231	0xbdb6622b	-0.08905443
232	0x3d355780	0.0442729
233	0x3dcfd1a6	0.10147409
234	0xbe732e86	-0.23748216
235	0xbd627f66	-0.055297278
236	0xbe05b3a4	-0.13056809
237	0xbe41ccdd	-0.18925805
238	0xbe445a39	-0.19175042
239	0xbd3d944f	-0.046284016
240	0xbe08343e	-0.13301179
241	0xbe0493c4	-0.12946993
242	0xbdd5a5c0	-0.10432005
243	0xbe16e019	-0.14733924
244	0xbdda3cd8	-0.10656136
245	0xbf0931dc	-0.53591704
246	0xbee1b056	-0.44079846
247	0xbea83fdd	-0.32861224
248	0xbed0c81d	-0.40777674
249	0xbea3163f	-0.3185291
250	0xbbdbecce	-0.006711579
251	0xbe2f0abb	-0.17093937
252	0xbed01cbb	-0.4064692
253	0xbe2fc334	-0.17164308
254	0xbf162bf3	-0.5866081
255	0xbe8ecfd2	-0.2789293

conv2.bias f4 [16]
0	0x3f55a7f3	0.83459395
1	0x3f806058	1.0029402
2	0x3f8b598a	1.08867
3	0xbe0f4ccc	-0.1399414
4	0xbea8d56c	-0.32975328
5	0xbe662f0a	-0.22478881
6	0xbeac9b18	-0.33712077
7	0xbd4ec850	-0.050484
8	0x3f117815	0.56823856
9	0x3f44a98c	0.7682121
10	0xbe0d249a	-0.13783494
11	0xbea3e83a	-0.32013112
12	0xbdfe07d5	-0.124038376
13	0xbda09a1c	-0.07841894
14	0xbf186035	-0.595218
15	0x3f35cda4	0.7101691

fc1.weight f4 [120, 400]
0	0x3e79b004	0.24383551
1	0x3cc614fe	0.024179932
2	0x3cd3aed8	0.025840208
3	0xbb770090	-0.0037689544
4	0x3de04c46	0.10952048
5	0x3adad91a	0.0016696781
6	0xbe1154d3	-0.14192514
7	0xbe3674fe	-0.17818066
8	0xbdd539f3	-0.104114436
9	0x3ee5a252	0.44850403
10	0x3ec73757	0.38909408
11	0x3debfdd0	0.1152302
12	0xbe3c03cc	-0.18360823
13	0xbe49db9e	-0.19712684
14	0x3ecb5c78	0.39718986
15	0x3d8da744	0.06916669
16	0xbd8432ad	-0.06454978
17	0x3d09eb82	0.033671863
18	0xbda3d36a	-0.079993084
19	0xbea36944	-0.3191625
20	0xbe5f43da	-0.21803227
21	0x3e89d794	0.26922286
22	0xbd4fd408	-0.050739318
23	0xbe0d55d4	-0.13802272
24	0xbe8ee088	-0.2790568
25	0xbe88df4d	-0.26732865
26	0xbe298164	-0.16553265
27	0x3e1aca89	0.15116324
28	0xbdd1b19a	-0.10238953
29	0xbe01e783	-0.12685971
30	0x3edc2cd2	0.43002945
31	0x3dedc850	0.11610472
32	0xbd12a3da	-0.035800792
33	0xbe446d86	-0.19182405
34	0x3ddd5057	0.10806339
35	0x3cf92432	0.030412767
36	0xbdfb36d4	-0.12266317
37	0xbe1f145b	-0.15535109
38	0xbf161324	-0.58622956
39	0xbe12b19a	-0.14325562
40	0xbea52761	-0.32256606
41	0xbedab137	-0.4271333
42	0xbebef4f4	-0.3729626
43	0xbf15a9ee	-0.5846242
44	0xbeb13d7b	-0.34617218
45	0xbe646539	-0.22304238
46	0xbe41baf7	-0.18918978
47	0xbd872e5e	-0.06600641
48	0xbe6f59a6	-0.23374042
49	0xbe374270	-0.17896438
50	0xbdcd60d0	-0.10028231
51	0xbea07323	-0.31337842
52	0xbe8fbc95	-0.28073564
53	0xbe9065ff	-0.28202817
54	0xbe3fc97e	-0.18729207
55	0x3d874cc5	0.066064395
56	0x3dbbeb60	0.091757536
57	0xbe2f9e68	-0.17150271
58	0xbe436081	-0.19079782
59	0xbe04c0eb	-0.12964217
60	0xbe22f84e	-0.15915033
61	0x3d884f58	0.066557586
62	0x3deaafd2	0.11459316
63	0xbd158eb0	-0.03651303
64	0xbe7e8882	-0.24856761
65	0xbec9ba9a	-0.39400178
66	0xbd247ffc	-0.040161118
67	0x3d31d5f6	0.04341694
68	0xbe9ee06c	-0.31030595
69	0xbeddd2b8	-0.43324828
70	0xbebb0a98	-0.3653152
71	0xbe907d66	-0.2822067
72	0xbdcfec30	-0.10152471
73	0xbd2861ca	-0.041108884
74	0x3e21c27a	0.15796843
75	0x3d8c8538	0.06861347
76	0xbbd5c740	-0.0065239966
77	0xbcba3422	-0.022729937
78	0x3c670e15	0.0141024785
79	0x3cd30a8f	0.02576187
80	0x3cb62510	0.02223447
81	0x3d561f68	0.052276045
82	0x3d8f939e	0.070105776
83	0x3d4fb7d1	0.05071241
84	0x3d353800	0.04424286
85	0x3d80ecdc	0.06295177
86	0x3c765092	0.015033858
87	0x3c36d802	0.011159899
88	0x3d8f2071	0.069886096
89	0x3c2ef26a	0.010677913
90	0x3c51e6ec	0.012811404
91	0x3d3cf7a4	0.046134606
92	0x3a960090	0.001144426
93	0x3cbd6410	0.023119003
94	0xbb11a228	-0.0022221897
95	0xbc925b6c	-0.017865859
96	0xbcdfd9cc	-0.027325533
97	0xbca96f6a	-0.02068301
98	0xbd792571	-0.060826723
99	0x3cbbf1e3	0.022942489
100	0x3daa0a3c	0.08302733
101	0x3dac22df	0.08405089
102	0x3d119ae8	0.03554812
103	0xbcd32871	-0.02577612
104	0x3c9462b2	0.018113468
105	0xbd0d9eaa	-0.034575142
106	0xbbc43bfc	-0.005988596
107	0x3be741ce	0.007057405
108	0x3dbd4fac	0.09243712
109	0xbd9f3d94	-0.07775417
110	0xbdcae8eb	-0.09907707
111	0x3d3045d1	0.043035332
112	0x3d24122a	0.040056385
113	0xbd2c82c5	-0.0421169
114	0xbb4d1754	-0.0031294422
115	0xbded8d0b	-0.115991674
116	0x3d29e8e4	0.041481867
117	0x3c16752f	0.009183212
118	0xbd0d07d4	-0.034431294
119	0xbd5d117c	-0.053971753
120	0xbdb789cc	-0.089618295
121	0xbcb5119e	-0.022103127
122	0xbda4e9a2	-0.080523744
123	0xbda0f60d	-0.078594305
124	0xbe471c89	-0.19444479
125	0xbd5d48a6	-0.05402436
126	0xbd0af353	-0.03392346
127	0x3caa69dc	0.02080243
128	0xbd487225	-0.04893698
129	0x3c98da5a	0.018658806
130	0xbd5b5e01	-0.053556446
131	0x3d135263	0.035967242
132	0x3c31ba7c	0.010847684
133	0xbd256805	-0.040382404
134	0x3d116ad8	0.035502285
135	0x3cbab968	0.022793487
136	0xbd22632b	-0.039645355
137	0xbd6d0af2	-0.057871766
138	0xbca0c1e9	-0.019623714
139	0x3cc23175	0.023705224
140	0x3ae5acaf	0.0017522777
141	0xbd2b2619	-0.04178438
142	0xbd53890b	-0.051644366
143	0x3d018482	0.03162051
144	0xba96c828	-0.0011503743
145	0xbc97b1b8	-0.01851736
146	0xbd49b24b	-0.0492423
147	0xbc7de6e8	-0.015496947
148	0xbd12ec1e	-0.03586971
149	0xbd70446f	-0.058659013
150	0xbdabae40	-0.08382845
151	0x3c5640da	0.013076985
152	0x3b88dc7a	0.0041766735
153	0xbd9107b0	-0.070815444
154	0x3d9c313c	0.07626578
155	0x3dbf143a	0.0933003
156	0x3da5085b	0.08058234
157	0xbd5d40be	-0.05401682
158	0xbca34184	-0.019928701
159	0x3d24dab6	0.04024764
160	0x3e630f59	0.22173823
161	0xbcc8a5fa	-0.024493206
162	0xbdbe801b	-0.09301778
163	0x3da82310	0.08209813
164	0x3d8d730e	0.069067106
165	0x3d9c4800	0.076309204
166	0xbd637e97	-0.055540647
167	0x3d7b01e8	0.061281115
168	0x3dbb152b	0.09134897
169	0x3d70c624	0.05878271
170	0x3d21cb2d	0.039500404
171	0xbd5142d7	-0.051089134
172	0x3e081d78	0.13292491
173	0x3ddea16a	0.10870631
174	0xbc5f81cc	-0.013641786
175	0xbed25488	-0.41080117
176	0x3daa9f61	0.0833118
177	0x3e09b18f	0.1344664
178	0x3ea61f8a	0.32445937
179	0xbe4ca5ed	-0.1998517
180	0xbea8aeb7	-0.32945797
181	0xbe59e20d	-0.21277638
182	0xbebe9259	-0.3722103
183	0xbe43c8e8	-0.19119608
184	0xbd4ec84d	-0.05048399
185	0xbd54f03b	-0.051986914
186	0xbccb4bfe	-0.02481651
187	0x3d54bd31	0.05193824
188	0x3e546fbe	0.20745751
189	0xbdf54e18	-0.11977786
190	0xbe4f7a1b	-0.20261423
191	0x3db6c6e0	0.08924651
192	0x3cfce83e	0.03087246
193	0xbe49f440	-0.1972208
194	0x3da50261	0.08057094
195	0x3ca33d8a	0.019926805
196	0xbda5aa9a	-0.0808918
197	0xbe283ff9	-0.16430654
198	0xbdea55ca	-0.11442144
199	0xbea50d0e	-0.32236522
200	0x3ea5378a	0.32268935
201	0x3eb1a79d	0.3469819
202	0xbcd454d4	-0.025919355
203	0x3cf77164	0.030205436
204	0x3d3bb86a	0.045830168
205	0x3c9d0cc7	0.019171132
206	0x3e3c41c3	0.18384461
207	0xbe8b96c2	-0.27263457
208	0xbdf58392	-0.11987986
209	0xbe7ac162	-0.24487832
210	0x3d827e50	0.063717484
211	0x3e251b04	0.16123587
212	0x3dc280e0	0.09497237
213	0x3e188834	0.14895707
214	0x3ca7be43	0.020476466
215	0xbe6cc3cc	-0.23121566
216	0x3c2b391e	0.0104506295
217	0x3e3a4554	0.18190509
218	0xbc4045ee	-0.011735423
219	0xbe6e825f	-0.2329192
220	0xbe4d584c	-0.20053214
221	0x3e277919	0.16354789
222	0xbc4cca73	-0.0124994395
223	0xbde56b08	-0.11202055
224	0xbeb426b3	-0.35185775
225	0xbee1d258	-0.44105792
226	0xbe9f22af	-0.3108115
227	0xbe946ef4	-0.289909
228	0xbed2ffed	-0.4121088
229	0x3d7ddd69	0.06197873
230	0xbefcb2fa	-0.49355298
231	0xbe4532d2	-0.19257668
232	0xbeabbdb2	-0.33543164
233	0xbe78350c	-0.24238986
234	0x3eacd9cb	0.33759913
235	0xbebd7b0c	-0.3700794
236	0xbea59ba6	-0.32345313
237	0xbe9a2a62	-0.3011046
238	0xbec97774	-0.39348948
239	0xbded9e16	-0.11602418
240	0xbed76b46	-0.4207403
241	0xbe42b8df	-0.19015835
242	0xbc53c538	-0.012925439
243	0xbe12de2c	-0.14342564
244	0xbecebb6d	-0.4037737
245	0xbe844796	-0.25835866
246	0xbe7c2273	-0.24622516
247	0xbe2884ae	-0.16456863
248	0xbeafad91	-0.34312108
249	0xbf226578	-0.6343608
250	0x3d73d963	0.059533488
251	0x3c9cdb37	0.019147499
252	0xbc43d458	-0.011952482
253	0x3cd664fa	0.026171196
254	0xbce2b31d	-0.027673298
255	0x3b316853	0.0027070239

fc1.bias f4 [120]
0	0xbf443c53	-0.7665455
1	0x3e87c230	0.2651534
2	0xbea4e383	-0.32204828
3	0xbf42b37e	-0.76055133
4	0xbf39976f	-0.72496694
5	0xbeb717e1	-0.35760406
6	0xbee88404	-0.4541322
7	0xbe82ec7b	-0.25571045
8	0x3eb38254	0.3506037
9	0x3f53d294	0.8274319
10	0xbeb05dda	-0.34446603
11	0xbe419a78	-0.18906581
12	0xbf41837f	-0.7559127
13	0xbee7ed90	-0.45298433
14	0xbf325694	-0.6966336
15	0xbe809c35	-0.25119177
16	0xbb93dd8c	-0.0045124944
17	0x3d0a54ac	0.033772156
18	0xbf2a6107	-0.665543
19	0xbd9878da	-0.074449256
20	0x3d2cb3fd	0.042163838
21	0xbeee0d16	-0.4649436
22	0xbf368390	-0.712945
23	0xbe3ba80d	-0.18325825
24	0xbebd54d7	-0.3697879
25	0xbf0eea1a	-0.5582596
26	0xbd8941b0	-0.06701982
27	0xbeb71af2	-0.35762745
28	0xbf1d1564	-0.61360765
29	0xbf5ec95e	-0.8702601
30	0xbe9fb640	-0.31193733
31	0xbf0aa71d	-0.54161245
32	0xbeacf390	-0.33779573
33	0xbdcca717	-0.09992807
34	0xbf4e4f48	-0.80589724
35	0xbf5892a1	-0.8459874
36	0xbf171577	-0.5901713
37	0xbf214342	-0.6299325
38	0xbf6dd017	-0.92895645
39	0x3f27ced1	0.6554995
40	0xbed99837	-0.42498943
41	0xbf079bb6	-0.5297197
42	0xbea981a0	-0.3310671
43	0xbe97280a	-0.29522735
44	0x3cea8582	0.028628115
45	0xbe90ccfe	-0.28281397
46	0xbebd6730	-0.36992788
47	0x3e48515a	0.19562283
48	0xbeccf4c5	-0.40030494
49	0x3f1277c1	0.5721398
50	0xbf21a44e	-0.63141334
51	0xbf2dd6a0	-0.67905617
52	0xbf26f95d	-0.6522425
53	0xbf0d4256	-0.55179346
54	0xbe54cf26	-0.20782146
55	0xbf06af8b	-0.5261161
56	0xbec04844	-0.37555134
57	0xbe8c3c70	-0.2738986
58	0xbefcac3c	-0.49350154
59	0xbe00d571	-0.12581421
60	0x3e297ce5	0.1655155
61	0xbf616008	-0.8803716
62	0xbe70237e	-0.23451039
63	0x3e3ef8b1	0.18649556
64	0xbf16ac7e	-0.5885695
65	0xbe88326f	-0.26600978
66	0xbf610a8c	-0.8790672
67	0x3f52cc9c	0.8234346
68	0xbeb9ce94	-0.3629042
69	0xbea196c3	-0.31560335
70	0xbeb54e0f	-0.35411116
71	0xbf034874	-0.5128243
72	0x3dc9ff26	0.09863119
73	0x3f522c58	0.82098913
74	0xbebf7686	-0.37395114
75	0xbeb206f5	-0.34770933
76	0xbec7abf2	-0.3899837
77	0x3f8d2e2a	1.1029713
78	0xbed7c696	-0.42143697
79	0xbea9616f	-0.33082148
80	0xbf1802a7	-0.5937905
81	0xbf256d7e	-0.64620197
82	0xbed8d8c0	-0.42352867
83	0xbf07aeab	-0.530009
84	0xbebdccde	-0.37070364
85	0xbd69f438	-0.05711767
86	0x3ece80f2	0.40332752
87	0xbee2b9b4	-0.44282305
88	0xbe1a1a75	-0.15049155
89	0xbe9f0a04	-0.3106233
90	0x3e12a1ae	0.14319488
91	0xbe4df1a6	-0.20111713
92	0x3e0c70a0	0.13714838
93	0xbe8a3e83	-0.27000818
94	0x3f3d75da	0.7400795
95	0xbf095fa8	-0.53661585
96	0xbefc57e2	-0.492858
97	0xbf0e7433	-0.55646056
98	0xbe9d547e	-0.30728525
99	0xbee302f9	-0.44338205
100	0xbee47575	-0.44620863
101	0xbe67d884	-0.22641188
102	0xbea0fd52	-0.31443268
103	0xbf1355c8	-0.57552767
104	0xbea6aa26	-0.32551688
105	0xbefbb77d	-0.49163428
106	0xbf341a30	-0.7035246
107	0xbf1a7e00	-0.6034851
108	0xbf88c5f8	-1.0685415
109	0xbeca9181	-0.39564136
110	0xbeafacee	-0.34311622
111	0xbecf0a5e	-0.40437597
112	0xbf2f675f	-0.68517107
113	0xbf08715d	-0.5329798
114	0xbed19708	-0.4093554
115	0xbf088028	-0.5332055
116	0xbef24da3	-0.47324857
117	0x3eb97f92	0.3623014
118	0xbec80c4f	-0.3907189
119	0x3ddfc8eb	0.10926994

fc2.weight f4 [84, 120]
0	0xbe1c7944	-0.15280634
1	0xbd27b5cc	-0.04094486
2	0xbc28e4c6	-0.01030845
3	0xbd9996a9	-0.07499439
4	0xbe333e3b	-0.17504208
5	0xbd6e7d9e	-0.058225267
6	0xbdda80a3	-0.10669067
7	0xbc9cdf34	-0.0191494
8	0xbdf6138e	-0.120154485
9	0xbe07b014	-0.13250762
10	0xbec2add9	-0.3802326
11	0x3c129b33	0.008948135
12	0xbd9f680a	-0.07783516
13	0x3c5ae634	0.013360549
14	0xbe78bd11	-0.24290873
15	0xbceef2aa	-0.029168446
16	0xbe0039d9	-0.12522067
17	0xbe76325d	-0.2404265
18	0xbe96c527	-0.2944729
19	0xbe278076	-0.16357598
20	0xbe4bf335	-0.19916995
21	0xbd84b754	-0.064802796
22	0xbe22b04b	-0.15887563
23	0x3d06544a	0.032795228
24	0x3e1577f4	0.1459654
25	0xbcddec70	-0.027090281
26	0xbc898581	-0.016787292
27	0xbadb9702	-0.0016753378
28	0x3c9e6f1c	0.01934009
29	0xbdd9ab5f	-0.106283896
30	0x3e390f87	0.1807233
31	0x3d8a81fe	0.06763075
32	0xbe2415de	-0.16023967
33	0x3c29fad2	0.010374742
34	0xbd37fdc0	-0.04491973
35	0xbe890a36	-0.26765603
36	0xbdb98c5c	-0.090599746
37	0xbe6dcaa8	-0.23221838
38	0xbda6c049	-0.08142144
39	0xbd83685d	-0.0641639
40	0xbe20b432	-0.15693739
41	0x3d5e4520	0.05426514
42	0xbe251112	-0.16119793
43	0x3e062cd8	0.13103044
44	0xbe6068d6	-0.21914992
45	0xbbcbca81	-0.0062192087
46	0xbe913661	-0.283618
47	0xbd1752b8	-0.03694412
48	0x3da1da91	0.07903016
49	0x3ce57024	0.028007574
50	0x3d479524	0.048726216
51	0x3b8788c1	0.0041361754
52	0xbe05663d	-0.13027282
53	0xbd98b8c1	-0.07457114
54	0xbdb27a3e	-0.08714722
55	0x3d41a26d	0.047274042
56	0xbdb025c0	-0.0860095
57	0xbdf45c18	-0.11931628
58	0x3d60418f	0.05475002
59	0x3bb89cdd	0.005633934
60	0x3da974e5	0.08274249
61	0xbded76d6	-0.11594932
62	0x3c108b02	0.008822205
63	0xbe74b0cc	-0.23895568
64	0xbd7ec420	-0.062198758
65	0xbd16eeac	-0.03684871
66	0xbd5f75e5	-0.054555792
67	0xbe015509	-0.12630095
68	0xbd5ecb50	-0.054393113
69	0x3c6e68f2	0.014551388
70	0x3d9cb0b1	0.07650889
71	0xbdfaf9b0	-0.12254655
72	0xbea1f60c	-0.3163303
73	0xbd847327	-0.06467276
74	0xbcf03e2a	-0.029326517
75	0xbdac3d68	-0.0841015
76	0xba761a80	-0.0009388104
77	0xbea38fd8	-0.31945682
78	0x3d813fdb	0.063110076
79	0x3dd775de	0.10520528
80	0xbe6a16cb	-0.22860257
81	0xbd147678	-0.036245793
82	0xbdfdd838	-0.12394756
83	0xbdf34f18	-0.1188032
84	0xbd080b5c	-0.03321396
85	0xbe0d8407	-0.13819896
86	0xbdb972bf	-0.09055089
87	0xbecacb52	-0.39608246
88	0x3d91d230	0.07120168
89	0xbdad8005	-0.084716834
90	0x3c052c2c	0.008128207
91	0x3d5a7da6	0.053342484
92	0xbe0b8218	-0.13623846
93	0xbb741642	-0.0037244712
94	0xbe97cd77	-0.29648945
95	0xbe956765	-0.29180446
96	0xbe26dd75	-0.16295417
97	0xbdc07330	-0.0939697
98	0xbd87e26e	-0.06634985
99	0x3dccc229	0.099979706
100	0x3c036125	0.0080187665
101	0xbd14cdb5	-0.03632899
102	0xbd4b5907	-0.04964545
103	0xbe4325f7	-0.19057451
104	0x3d88b203	0.06674578
105	0x3d08b90a	0.033379592
106	0x3d584f36	0.052809916
107	0xbdc4e7be	-0.09614514
108	0xbd27b8c8	-0.040947706
109	0x3cf21a72	0.029553626
110	0x3c9361d0	0.017990977
111	0xbdec1fea	-0.115295246
112	0xbe303a11	-0.1720965
113	0xbc819cb2	-0.015821788
114	0xbe591dd5	-0.21202786
115	0x3cc0822c	0.02349957
116	0xbd35ce02	-0.044385917
117	0xbe529232	-0.20563582
118	0xbe162c80	-0.14665413
119	0xbe0e736f	-0.13911222
120	0xbec1e3d4	-0.37869132
121	0xbe2ed7bd	-0.17074485
122	0xbe948aac	-0.29012048
123	0xbeb2493b	-0.34821495
124	0xbe06f552	-0.1317952
125	0xbe6be0b0	-0.2303493
126	0x3db72662	0.08942868
127	0x3e178b85	0.14799316
128	0xbf03cb84	-0.51482415
129	0xbea8073a	-0.32818013
130	0xbf274c9d	-0.6535128
131	0x3e3a34c4	0.18184191
132	0xbe878c9e	-0.2647447
133	0x3eb0178c	0.34392965
134	0x3d96bfe0	0.07360816
135	0x3ca58aab	0.020207724
136	0xbe4623f6	-0.19349656
137	0x3e0d06b8	0.13772094
138	0xbdd8cd57	-0.105860405
139	0xbc6746b0	-0.014115974
140	0x3eb4e8ca	0.35333854
141	0xbe0a94a4	-0.13533264
142	0xbe60ae41	-0.21941473
143	0x3d818508	0.06324202
144	0xbdb82639	-0.089916654
145	0xbca5119f	-0.020150004
146	0x3eaed3ef	0.34146068
147	0x3de3266a	0.11091311
148	0x3e490f25	0.19634683
149	0xbef3a64c	-0.47587812
150	0xbe6d8623	-0.231957
151	0xbe8618ba	-0.2619074
152	0xbf480be7	-0.7814316
153	0xbdb85bfa	-0.09001918
154	0x3e16fb45	0.14744289
155	0x3d889753	0.06669488
156	0x3f06cae7	0.52653354
157	0x3ebf22f7	0.37331364
158	0x3cbfdb26	0.023419928
159	0xbded22f5	-0.11578933
160	0xbd432e59	-0.047651622
161	0xbd70a321	-0.05874932
162	0x3eb1e062	0.34741503
163	0xbe5df6b3	-0.2167614
164	0xbe6436d8	-0.22286546
165	0x3d5809cb	0.052743714
166	0xbe186c14	-0.14884979
167	0xbee797c2	-0.4523297
168	0xbd5098fe	-0.050927155
169	0xbe73df7e	-0.23815724
170	0x3e1020a9	0.14074959
171	0x3d7384ea	0.05945293
172	0x3c146878	0.00905811
173	0x3ea16856	0.31524915
174	0x3db64712	0.08900274
175	0x3e3ad78d	0.18246289
176	0x3aacf7a0	0.0013196357
177	0x3dc7e442	0.097603336
178	0xbdefa05c	-0.11700508
179	0x3d7ba8a7	0.061440136
180	0xbe2bc232	-0.16773298
181	0xbca9d1e6	-0.02072997
182	0x3d480e16	0.04884156
183	0x3ea60e7e	0.32432932
184	0xbe1dfe97	-0.1542915
185	0x3c7ce88c	0.015436303
186	0xbe3c4550	-0.18385816
187	0x3e10aa5d	0.14127488
188	0xbbc4e256	-0.0060084267
189	0x3cffc697	0.031222625
190	0x3e0d905b	0.13824598
191	0xbc9318dc	-0.01795619
192	0xbc4a6b04	-0.012354616
193	0xbd40981c	-0.047020063
194	0x3dc46cae	0.095910415
195	0xbe23bf37	-0.15990911
196	0xbde028c2	-0.10945274
197	0xbe8cb7d2	-0.27483994
198	0xbcbc6da3	-0.023001498
199	0xbdb07c90	-0.086175084
200	0x3eab39f3	0.3344265
201	0x3e1804cf	0.14845584
202	0xbe80f81a	-0.25189286
203	0xbe3ef350	-0.18647504
204	0xbe03a292	-0.12854984
205	0x3ed99524	0.42496598
206	0xbcbd8ab2	-0.023137424
207	0xbe487832	-0.19577101
208	0xbd239de1	-0.039945487
209	0xbe3434ac	-0.17598218
210	0xbe92cbdd	-0.2867116
211	0xbe9f76f7	-0.3114545
212	0xbe41e4b8	-0.18934906
213	0xbcf21a90	-0.029553682
214	0x3c9c9a86	0.019116651
215	0xbd7adce8	-0.06124583
216	0x3e391cc9	0.18077387
217	0x3dc63782	0.09678556
218	0xbebb91bd	-0.36634627
219	0x3d05a709	0.03263
220	0x3e66a23b	0.22522824
221	0x3e847e71	0.25877717
222	0x3e0db733	0.13839416
223	0xbd83d75e	-0.064375624
224	0xbcadf5c4	-0.021235354
225	0xbefaf7fa	-0.49017316
226	0xbe217591	-0.15767504
227	0xbf191d3b	-0.5981023
228	0x3d20b5df	0.039235946
229	0x3d39a006	0.045318626
230	0x3d9e15fd	0.07719038
231	0xbc452b3b	-0.012034233
232	0x3d65e8f2	0.056130357
233	0x3e80e1d5	0.25172296
234	0x3d1ea2d8	0.03872952
235	0x3d04a5fc	0.032384858
236	0x3ce2a5c3	0.027666932
237	0xbd53cb66	-0.051707648
238	0x3e73e944	0.23819453
239	0xbf4087b4	-0.75207067
240	0xbd76f49f	-0.060291883
241	0x3c691fb4	0.01422875
242	0xbca0aa13	-0.019612348
243	0xbcfe987b	-0.031078568
244	0xbe0383c2	-0.1284323
245	0xbdd5b2c7	-0.1043449
246	0x3bec89c0	0.0072185695
247	0x3c7f1f2b	0.015571396
248	0xbc3c909d	-0.011509088
249	0xbdb01eb2	-0.08599605
250	0xbe3523c8	-0.1768943
251	0xbdc04cad	-0.09389625
252	0xbcf0ccee	-0.029394593
253	0x3e46821f	0.19385575
254	0xbdb364de	-0.08759473
255	0x3bccf2ce	0.0062545305

fc2.bias f4 [84]
0	0xbed1e6a7	-0.40996286
1	0x3f458ea2	0.77170765
2	0xbef950ff	-0.48694608
3	0xbefb503c	-0.4908465
4	0xbf1ae81e	-0.6051043
5	0xbeef5038	-0.4674089
6	0xbe1fd28a	-0.15607658
7	0xbe724940	-0.23660755
8	0xbefaedb6	-0.49009484
9	0xbee89c7e	-0.45431894
10	0xbf3f96b0	-0.74839306
11	0xbeaf0204	-0.34181225
12	0x3e89cea2	0.2691546
13	0xbe8e4314	-0.27785552
14	0xbf11b5e4	-0.5691817
15	0xbf2ee425	-0.6831687
16	0x3f88b4fc	1.0680232
17	0x3dcec2b0	0.100957274
18	0x3f1c5e40	0.61081314
19	0xbecd14f9	-0.40055063
20	0xbe82fffe	-0.25585932
21	0xbed4d171	-0.4156604
22	0xbe9e122f	-0.30873248
23	0xbdb359ac	-0.08757338
24	0xbe6c769b	-0.2309212
25	0xbf22ac9e	-0.6354464
26	0xbf03d2ef	-0.51493734
27	0xbe41ed7d	-0.18938251
28	0xbe970d9c	-0.2950257
29	0xbeecc126	-0.4624111
30	0xbedd36aa	-0.43205768
31	0xbe8a1306	-0.2696764
32	0xbef4046a	-0.47659618
33	0xbe9acc00	-0.30233765
34	0xbe9679d0	-0.2938981
35	0xbe80d842	-0.25164992
36	0xbe96bb71	-0.2943988
37	0xbf0e76cb	-0.55650014
38	0xbe8fa070	-0.28052092
39	0x3f08ad75	0.53389674
40	0xbe7f736e	-0.24946377
41	0xbecc9604	-0.39958203
42	0xbf4aec5a	-0.79266894
43	0xbd715870	-0.05892223
44	0xbeeecb14	-0.4663931
45	0xbee5a7e5	-0.44854656
46	0x3de38116	0.111086056
47	0xbf03fa61	-0.5155392
48	0xbf373ef2	-0.7158042
49	0xbeb01da9	-0.3439763
50	0xbeaff7d4	-0.34368765
51	0xbef62d2e	-0.48081344
52	0xbe4773de	-0.19477794
53	0x3fbcf846	1.4763267
54	0xbe1a17a7	-0.15048085
55	0x3ec01ffe	0.37524408
56	0xbea6e66c	-0.32597673
57	0xbe993bed	-0.29928532
58	0xbecda328	-0.4016354
59	0xbea28b42	-0.3174687
60	0xbe4e07de	-0.20120189
61	0xbee30fc0	-0.44347954
62	0xbebaa064	-0.36450493
63	0xbe5ed42d	-0.21760626
64	0xbe6ee931	-0.23331143
65	0xbeb65c69	-0.35617378
66	0x3f170a3b	0.58999985
67	0x3dedf1ac	0.11618361
68	0xbe93e159	-0.28882864
69	0xbee01280	-0.43764114
70	0xbeda3fce	-0.42626804
71	0xbecf1a1a	-0.404496
72	0xbece2b82	-0.4026757
73	0xbf0e0b34	-0.55485845
74	0xbf25c535	-0.6475404
75	0xbda7d5b8	-0.081950605
76	0xbf20212b	-0.6255061
77	0xbf1f5050	-0.6223192
78	0xbf376fd6	-0.71655023
79	0x3e49949e	0.19685599
80	0xbf1736e7	-0.5906815
81	0xbe966daa	-0.29380542
82	0x3f51f0fe	0.8200835
83	0xbeafa324	-0.34304154

fc3.weight f4 [10, 84]
0	0xbf030efb	-0.51194733
1	0xbe8150b6	-0.2525689
2	0xbe43c67e	-0.19118688
3	0xbf9afc4b	-1.2108244
4	0xbf2bb994	-0.67080045
5	0xbf152f8d	-0.5827568
6	0xbf4ecb9d	-0.8077944
7	0xbf18d1d1	-0.59695154
8	0xbe626dd4	-0.22112209
9	0xbe9be13f	-0.30445287
10	0xbf801efb	-1.0009454
11	0xbf8f82e2	-1.1211817
12	0xbe1b2eb0	-0.15154529
13	0xbf68a398	-0.90874624
14	0xbef0bcbf	-0.47019002
15	0xbe3f8771	-0.1870401
16	0xbe94f5d5	-0.29093805
17	0xbf59b9dd	-0.8504923
18	0xbdd6b879	-0.10484404
19	0xbfa3f63f	-1.2809523
20	0xbf003b20	-0.5009022
21	0xbe65907e	-0.224184
22	0xbedc4ba1	-0.4302645
23	0xbf601a72	-0.8754035
24	0xbe422d6b	-0.18962638
25	0xbf721681	-0.9456559
26	0xbf600a04	-0.8751528
27	0xbec7247d	-0.38895026
28	0xbe91b8a4	-0.28461182
29	0xbeeaa192	-0.45826393
30	0xbefa5e27	-0.48899958
31	0xbe40933c	-0.18806165
32	0xbec5b3e8	-0.3861382
33	0xbe6f1825	-0.23349054
34	0xbf84a3e2	-1.0362513
35	0x3cd72bca	0.026265997
36	0xbe0e04a8	-0.13868964
37	0xbf0c1eb5	-0.54734355
38	0xbf65cd34	-0.8976624
39	0xbed1dddb	-0.40989575
40	0xbf183ce3	-0.59467906
41	0xbec39afc	-0.3820418
42	0xbf579025	-0.8420432
43	0xbf112f0f	-0.5671243
44	0xbf07c417	-0.53033584
45	0xbee7a2d6	-0.4524142
46	0xbe1468ea	-0.14493147
47	0xbec3e959	-0.38263968
48	0xbfb6c87a	-1.427993
49	0xbf4b17ba	-0.7933308
50	0xbd883f26	-0.066526696
51	0xbf175b7b	-0.59123963
52	0xbf54ca00	-0.8312073
53	0xbed8ad50	-0.42319727
54	0x3df14f1e	0.117826685
55	0x3e3d4117	0.18481861
56	0xbf0db7f4	-0.55358815
57	0xbc9905e0	-0.01867956
58	0xbf9cb691	-1.2243215
59	0xbe7992ae	-0.2437236
60	0xbf1357e8	-0.5755601
61	0xbeb69631	-0.35661462
62	0xbe8717ce	-0.2638535
63	0xbe1050ba	-0.14093295
64	0xbf2f50e9	-0.68482834
65	0xbecc0940	-0.39850807
66	0xbe9fd5ea	-0.3121789
67	0xbeb28ced	-0.34873143
68	0xbf67f979	-0.9061504
69	0xbf837da3	-1.0272716
70	0xbf9c40b9	-1.2207252
71	0xbeb05859	-0.34442404
72	0xbf62e0cc	-0.8862426
73	0xbec28390	-0.37991
74	0xbf19d568	-0.6009126
75	0xbd7767f0	-0.060401857
76	0xbfa31a8c	-1.2742476
77	0xbfb0f641	-1.3825151
78	0xbf762c1a	-0.96161044
79	0xbf52fbbc	-0.82415366
80	0xbe8e688c	-0.27814138
81	0xbfc12b18	-1.5091276
82	0xbe5d5b89	-0.21616949
83	0xbe84a4e9	-0.25907066
84	0xbf4390ac	-0.76392627
85	0xbf89090e	-1.0705888
86	0xbe3d4848	-0.18484604
87	0xbf8aadc0	-1.0834274
88	0xbf074cff	-0.5285186
89	0xbf1a2155	-0.6020711
90	0xbf4910a4	-0.78541017
91	0xbf49d734	-0.78844
92	0xbe88479a	-0.26617128
93	0xbe1e69d0	-0.15470052
94	0xbef3cd4b	-0.47617564
95	0xbf9cde64	-1.2255368
96	0xbe20fa53	-0.15720491
97	0xbfe89364	-1.816998
98	0xbf1ae27f	-0.60501856
99	0xbeae3e2a	-0.34031802
100	0xbd1d7c8e	-0.038448863
101	0xbfd89881	-1.692154
102	0xbedcd8c4	-0.4313413
103	0xbf8863a0	-1.0655403
104	0xbf3690aa	-0.7131449
105	0xbef60519	-0.48050764
106	0xbf4e5776	-0.80602205
107	0xbf6a6510	-0.9156046
108	0xbe2bc234	-0.16773301
109	0xbf9803cb	-1.1876158
110	0xbf299156	-0.6623739
111	0xbf02f674	-0.5115731
112	0xbea97e85	-0.3310434
113	0xbbb5f3fc	-0.005552767
114	0xbf19450a	-0.5987097
115	0xbd8626f5	-0.06550399
116	0xbf091de4	-0.53561234
117	0xbe837f7a	-0.25683194
118	0xbfe0ebf9	-1.7572013
119	0xbe89547c	-0.2682227
120	0xbe8cadc6	-0.2747633
121	0xbeea7389	-0.4579127
122	0xbf39c2a1	-0.72562605
123	0xbdc55c18	-0.09636706
124	0xbf4375ba	-0.7635151
125	0xbf318b51	-0.69353205
126	0xbf3eafe1	-0.7448712
127	0xbe821fbf	-0.25414845
128	0xbf443f40	-0.7665901
129	0xbf061d27	-0.5238823
130	0xbe986da5	-0.29771152
131	0xbe836d9c	-0.25669563
132	0xbfe890b5	-1.8169161
133	0xbf43795f	-0.7635707
134	0xbe722f94	-0.23650962
135	0xbf058e81	-0.5217057
136	0xbfb44402	-1.4083254
137	0xbf30204d	-0.6879929
138	0x3ea47c55	0.32126108
139	0xbec30316	-0.38088292
140	0xbeb440bc	-0.35205638
141	0xbe3eab30	-0.1861999
142	0xbfc3e215	-1.530337
143	0xbe434a46	-0.19071302
144	0xbf3792c3	-0.71708316
145	0xbea83f4e	-0.32860798
146	0xbf0619d3	-0.52383155
147	0xbe81aacb	-0.25325617
148	0xc02f1be0	-2.7360764
149	0xbead3bd6	-0.33834714
150	0xbf43a027	-0.7641625
151	0xbf487fde	-0.7832011
152	0xbf50208e	-0.81299675
153	0xbf3c43a9	-0.7354074
154	0xbf7cc7e8	-0.9874253
155	0xbef95e74	-0.48704875
156	0xbfd4af0e	-1.6615922
157	0xbf0c4250	-0.54788685
158	0xbefeb428	-0.49746823
159	0xbf0e0fd6	-0.55492914
160	0xbfb3914b	-1.4028715
161	0xbfcfffea	-1.6249974
162	0xbf7b4335	-0.98149425
163	0xbf01ab5a	-0.50652087
164	0xbe7d9674	-0.24764425
165	0xbfd8d04a	-1.6938565
166	0xbd82376c	-0.06358227
167	0xbe5e00a2	-0.21679929
168	0xbed90b12	-0.42391258
169	0x3e728284	0.236826
170	0xbe99b3a5	-0.3001987
171	0xbf11e9a1	-0.56997114
172	0xbeed6f5b	-0.4637402
173	0xbeac0c54	-0.33603156
174	0xbef0217a	-0.4690054
175	0xbf2a1cca	-0.6645018
176	0xbec3e81a	-0.38263017
177	0xbe564d07	-0.20927821
178	0xbf81c6a2	-1.0138743
179	0xbf1747dc	-0.59094024
180	0xbe9f69d4	-0.31135428
181	0xbe898265	-0.26857296
182	0xbf13776d	-0.57604104
183	0xbeed5bab	-0.46359
184	0xbd134b66	-0.035960577
185	0xbe2d759e	-0.16939399
186	0xbdc7bed7	-0.09753197
187	0xbf141015	-0.5783704
188	0xbec82317	-0.3908927
189	0xbe6eee05	-0.23332985
190	0xbe1f12e2	-0.15534547
191	0xbe74f4ee	-0.23921558
192	0xbe4dd184	-0.20099455
193	0xbf1de1ca	-0.6167265
194	0xbf24822c	-0.64261127
195	0xbed321d3	-0.41236743
196	0xbe38041f	-0.17970322
197	0xbf2e354a	-0.6805006
198	0xbebb064e	-0.36528248
199	0xbe1dc73c	-0.15408033
200	0xbec43962	-0.3832503
201	0xbe4a110a	-0.19733062
202	0xbed86763	-0.42266378
203	0xbe8d82dd	-0.27638903
204	0xbe121929	-0.1426741
205	0xbf0f3a79	-0.559486
206	0xbf11e00b	-0.5698249
207	0xbe6d7836	-0.23190388
208	0xbde74a36	-0.112934515
209	0xbe9bc3d8	-0.30422854
210	0xbf712303	-0.9419405
211	0xbeea4c16	-0.45761174
212	0xbee7a85f	-0.45245644
213	0xbee2f71f	-0.44329163
214	0xbeb3c0b3	-0.35107955
215	0xbebdea75	-0.3709294
216	0xbf886451	-1.0655614
217	0xbef613d7	-0.48062012
218	0xbe1e60b0	-0.15466571
219	0xbf0b15a3	-0.5432989
220	0xbf43bbad	-0.76458246
221	0x3e307db9	0.1723546
222	0xbebaf1cd	-0.36512604
223	0x3d125126	0.03572192
224	0xbeebee70	-0.4608035
225	0xbdb79ffc	-0.089660615
226	0xbf363173	-0.71169204
227	0xbec179dc	-0.37788284
228	0xbe6d2cdd	-0.23161645
229	0xbe3395fb	-0.17537682
230	0xbe8df4d0	-0.2772584
231	0xbe6a0578	-0.22853649
232	0xbf023112	-0.50856125
233	0xbe7e8c50	-0.24858212
234	0xbd87eef1	-0.06637371
235	0xbe90cd93	-0.2828184
236	0xbe277b89	-0.16355719
237	0xbf80b678	-1.0055685
238	0xbf21b95e	-0.6317347
239	0xbeae2bde	-0.34017843
240	0xbecc3d41	-0.39890483
241	0xbeb49186	-0.35267276
242	0xbf729986	-0.9476551
243	0xbe4a679d	-0.19766088
244	0xbf5a3e6e	-0.8525151
245	0xbf253cbb	-0.6454579
246	0xbf413d36	-0.75484025
247	0xbf1a0800	-0.6016846
248	0xbed1a0be	-0.4094295
249	0xbf3463e0	-0.704649
250	0xbdb468f4	-0.08809081
251	0xbe3c6b9f	-0.18400429
252	0xbeab52a8	-0.334615
253	0x3e0f971d	0.14022489
254	0xbe1e3c46	-0.1545268
255	0xbfc2970c	-1.5202346

fc3.bias f4 [10]
0	0xbeb2cb9c	-0.34920967
1	0xbe3c831c	-0.1840939
2	0xbe511efe	-0.20421979
3	0x3e77b62f	0.24190591
4	0x3d9fe3a7	0.07807093
5	0xbbb124cc	-0.005405998
6	0x3e8ec687	0.2788584
7	0x3e34e48a	0.17665306
8	0xbf01b7af	-0.50670904
9	0x3eb044f2	0.344276
